augment_model.pth (torch, 317570 bytes, 28 tensors)

weight_ih_l0 f4 [128, 45]
000000 b4 dc 32 bc 8e 9e c4 3d 24 bd 81 bd 04 8d 08 be
       -0.010916878 0.096005544 -0.06334904 -0.13335043
000010 b2 dd 1c bd fd ac 95 bc c3 b1 5d 3e e8 79 1c 3e
       -0.038297363 -0.018270964 0.21649842 0.15280879
000020 47 41 1e 3e 54 10 1e 3e c9 a4 80 3c 40 9a e9 3d
       0.15454589 0.15435916 0.015703576 0.11406374
000030 32 86 c4 3d 32 73 62 3c 36 76 54 3e 31 40 39 3e
       0.09595908 0.01382141 0.20748219 0.18090893
000040 f1 ee 65 3d 8f 73 ce 3d dd 9d 0d bc c4 9b 29 3e
       0.056136075 0.10080635 -0.008643595 0.16563326
000050 09 e8 06 bd 25 a2 85 3c 4b e6 8c 3d f9 76 27 be
       -0.03293613 0.016312668 0.068798624 -0.16353978
000060 1d cd be bd 20 fa 2f 3e c9 fa e1 3d 2c 22 78 bd
       -0.09316466 0.17185259 0.110341616 -0.060579464
000070 bc b2 e3 bc c6 63 0c bd 4b 28 aa bd fa ef d3 3b
       -0.027795188 -0.03427484 -0.083084665 0.0064678164
000080 58 44 36 3c 53 03 fb ba 22 65 9d 3c ee db 4b bd
       0.011124693 -0.0019150771 0.019213263 -0.04977029
000090 ad 59 0a 3e c5 42 68 bd 18 b0 22 3d 4e 4f bb bd
       0.13510771 -0.0567043 0.039718717 -0.091459855
0000a0 b0 a7 16 be b1 51 21 3e 77 5a 9b bd 1d 89 68 3d
       -0.14712405 0.15753819 -0.07585614 0.056771386
0000b0 4c 82 99 3d c0 f0 b7 3d 3c a0 88 bb 3e 3b 03 be
       0.07495555 0.08981466 -0.004169492 -0.12815568
0000c0 2f f9 85 3d ae df 12 be 8e a0 22 3e d2 dd d3 3d
       0.065416686 -0.1434314 0.15881559 0.10345043
0000d0 d6 05 d8 ba c4 39 9e bd a2 b6 a1 3c c1 b2 e2 bc
       -0.0016481231 -0.07725862 0.019740406 -0.027673127
0000e0 83 ab e5 bd eb 11 23 3e b3 b4 e9 3d a5 c3 c5 3d
       -0.11214354 0.15924804 0.11411419 0.09656457
0000f0 9d 94 34 bd d6 63 31 3d 1e 5e 86 bd e3 cd 80 3d
       -0.04408704 0.0433081 -0.0656092 0.0628927
000100 cb ff 9b 3d 47 4b b2 bd 5a 1b c4 bd 40 3b 38 3c
       0.07617148 -0.08705764 -0.095755294 0.011244595
000110 d1 3f 10 be 27 d9 41 3e f4 64 1c 3e 96 2e bc bc
       -0.14086844 0.18930493 0.15272886 -0.022971433
000120 3a f5 8a 3d f8 c9 25 be c9 ab 81 bd d6 d8 14 be
       0.067850545 -0.16190326 -0.063315935 -0.14535841
000130 f8 8a 55 bd 4d 37 b2 bd a7 f6 f1 3d 68 57 1d 3c
       -0.052134484 -0.08701954 0.11814623 0.009603359
000140 d3 cd 01 bd 92 b1 51 bd 93 65 65 bd 2c ae 21 3c
       -0.03169043 -0.051194735 -0.05600507 0.009868186
000150 b7 45 b6 3d b5 50 f4 bd 17 fa 5d bc f4 b0 79 3c
       0.08900016 -0.11929456 -0.013548396 0.015239943
000160 7d 01 a7 bd 66 60 1b be ec 5c 22 bd 9a 8c 16 be
       -0.08154581 -0.15173492 -0.0396394 -0.14702073
000170 95 f6 20 3e 80 49 79 bd 41 6b 03 3e 78 65 47 bc
       0.15719064 -0.06086111 0.12833883 -0.012170188
000180 ae 29 a4 3d f2 25 17 be 51 06 12 3e ef 85 1d be
       0.08015762 -0.14760569 0.14260222 -0.15383123
000190 0a 99 12 be fb 78 de 3d 3f 8e f6 bb 59 c4 4b 3d
       -0.14316192 0.10862919 -0.0075242813 0.0497478
0001a0 39 f7 30 bd 63 72 2f 3d 46 c4 bb bd 04 4d d9 bc
       -0.04320452 0.042833697 -0.091682956 -0.026525982
0001b0 64 2e cc bd 1b cf b6 3b cb aa e7 3d fe 29 9c 3d
       -0.09969786 0.005578888 0.11311873 0.07625197
0001c0 2d b7 b0 3d da 26 a1 3d fe a8 00 be cf 61 19 bd
       0.08628688 0.078687385 -0.12564465 -0.037446793
0001d0 27 5f ee bc bd d2 2e 3d 98 5b 08 be 84 6e d3 3d
       -0.029098107 0.042681444 -0.1331619 0.103238136
0001e0 a9 db 74 bc cf 16 fc bc d9 a2 70 3d b8 c6 7a bd
       -0.014944949 -0.030772595 0.058749054 -0.06122467
0001f0 c8 cd a6 bc 86 38 d7 bc 30 5e 00 3e 78 11 da bd
       -0.020361796 -0.02627207 0.1253593 -0.10647863
000200 aa eb 23 3e 18 8d 41 3e fb 49 b6 3d 44 58 29 3d
       0.16007867 0.18901479 0.089008294 0.041343942
000210 73 23 f8 3d 51 ee 0b bd 79 17 89 3d 55 b1 c0 bd
       0.121161364 -0.034162823 0.0669393 -0.094088234
000220 53 3e 02 be d2 f2 97 bd 17 85 ae bd c9 d5 ff 3d
       -0.12719087 -0.07419361 -0.085214786 0.12491948
000230 bc b4 75 3d 9e 5c 2a 3e e7 97 af bd eb a5 fe 3d
       0.059986815 0.16636893 -0.08573895 0.1243399
000240 b7 0f 0c 3d fa 5b 41 bc 43 a4 41 3e 42 fc 14 be
       0.034194674 -0.011801714 0.18910317 -0.14549354
000250 8a 0d 01 3e 29 14 d7 bd f7 52 5c bc 41 12 28 3d
       0.12602821 -0.10501892 -0.013447515 0.041033033
000260 9e 28 1d 3c ed ef 0c 3c 40 df 81 3d 01 d9 10 bd
       0.009592203 0.008602125 0.0634141 -0.0353632
000270 79 10 0b 3e ee 36 b2 3d da f4 f7 3d 57 c4 d0 ba
       0.13580503 0.08701883 0.121072486 -0.0015927654
000280 4e 29 fd 3d 51 8e 05 bd 7d e1 6f bd 14 4d 8a 3d
       0.12361394 -0.032606427 -0.05856465 0.06752983
000290 f2 f3 82 3d b1 e4 d1 3d c5 3a bf 3c 66 1a 29 3e
       0.06394185 0.102486975 0.023343453 0.16513976
0002a0 ad 8b 9b bd b5 09 17 3e d7 94 3d 3e e7 7b 4a bd
       -0.075950004 0.14749797 0.18513809 -0.04943457
0002b0 dd 65 94 bc 1e c1 26 3e 4d 6f 07 3d cf 78 eb bc
       -0.018114978 0.16284606 0.03306513 -0.02874413
0002c0 49 a9 e9 bd 8f ba cc 3b 28 09 09 3e fc 63 a8 3d
       -0.11409242 0.0062478255 0.13382399 0.082221955
0002d0 1b 3f 6f 3d a5 1d 21 3d 6b 21 3a bb 96 16 84 3d
       0.05840979 0.03933491 -0.0028401266 0.064496204
0002e0 16 54 35 3e 82 55 00 bd a1 20 0b be 92 d2 6a bd
       0.17707857 -0.031331547 -0.13586666 -0.05732972
0002f0 ac 9b ed bd ba 91 1d be 3f fe 37 bd 7b b6 2e 3c
       -0.11601958 -0.15387622 -0.044920202 0.010663624
000300 77 52 3e 3c 2a ee 02 3e 55 52 dc 3c 35 0d a8 3c
       0.011616341 0.12786165 0.026894728 0.02051411
000310 05 69 0c 3e d3 ea 04 3e 22 11 d9 bd d1 51 3a 3e
       0.13711937 0.12980203 -0.10598971 0.18195273
000320 29 cd 9c 3d 65 fa 56 3e d2 fe 8d 3d 1c f6 3e 3e
       0.07656319 0.20993955 0.06933369 0.18648571
000330 de 13 54 3e cf 23 ce bd e8 c3 db bd 35 0c f4 3d
       0.20710704 -0.10065424 -0.107307255 0.11916391
000340 d2 46 f1 bd 7f 3a 17 bd b0 e8 f0 3c b7 16 c5 3d
       -0.11781086 -0.03692102 0.029407829 0.09623473
000350 a8 01 83 3d c2 77 9b bd 14 13 1c 3e 69 d6 a6 3c
       0.063968 -0.07591201 0.15241653 0.02036591
000360 69 b9 72 3d 86 bc 27 3e 21 58 e0 3c 55 21 db 3d
       0.059258852 0.1638051 0.027385773 0.10699717
000370 73 1f 11 3e ef 4f 2e 3e c6 78 cf bc 05 54 2e 3d
       0.14172153 0.1702268 -0.025326144 0.042560596
000380 c5 7e 68 3d d5 d6 1c 3e fe 35 a6 bd 47 c8 0e be
       0.05676152 0.15316327 -0.08115767 -0.13943587
000390 98 94 79 3d 2f 41 3f be cc 10 e4 bd ec 6f 08 3e
       0.060932726 -0.1867721 -0.11136016 0.13323945
0003a0 7c a1 87 3d 29 11 79 3a 42 02 ce bd cd 5d da 3c
       0.066225976 0.0009501153 -0.100590244 0.026656056
0003b0 d2 db e5 bb 8b b4 0b 3e ad 98 c9 bd ec 67 93 3d
       -0.00701473 0.1364309 -0.09843574 0.07197556
0003c0 18 b6 14 3e ba cd a9 3d 5c 15 e2 3c 27 26 e6 bb
       0.14522588 0.08291192 0.027598076 -0.007023591
0003d0 6d 65 f1 3c 6a 1f bb bd ee c5 ed bd 82 60 b5 bd
       0.029467309 -0.09136851 -0.11610018 -0.08856298
0003e0 85 67 b5 3d 47 46 29 be 00 18 de bd 06 f3 ff bc
       0.088576354 -0.16530715 -0.108444214 -0.031243812
0003f0 5a ad 40 3c 0a f1 19 be f9 4b 15 bd 82 73 8c bb
       0.01176008 -0.15033355 -0.036449406 -0.0042862305

weight_hh_l0 f4 [128, 32]
000000 b8 0e 71 be db 38 8a be 08 47 11 3e ec f4 0c be
       -0.23540771 -0.26996502 0.14187253 -0.13765305
000010 ec f5 5b 3e 4d 73 36 3c 34 8c 98 bc 35 4c c1 3e
       0.2148053 0.011135888 -0.018621542 0.37753454
000020 61 11 1b 3d 25 83 0b be 19 2f 3e be d3 e1 77 be
       0.03785837 -0.13624246 -0.18572654 -0.24207239
000030 1a d3 59 be bf 11 cf 3d 0a e4 16 be 4b 2d da bd
       -0.21271935 0.10110807 -0.14735427 -0.1065317
000040 6a e9 b0 3c 98 22 23 be df 05 6d bc a4 59 dc 3d
       0.021595675 -0.15931165 -0.014466732 0.10759285
000050 a3 8c bc 3e e8 6d 2c 3e e1 df 91 3e c3 d2 1f be
       0.36826047 0.16838801 0.2849112 -0.15607743
000060 cb 22 2a 3d e2 c4 37 3d 1e 89 13 3e 04 1a 0c bf
       0.041537087 0.044865496 0.14407775 -0.54727197
000070 63 06 04 be 72 95 8b bd 6a 8e 8a 3d d0 0b bb 3d
       -0.12893061 -0.06815614 0.067654446 0.091331124
000080 fc be 0f be 3d 93 a1 3d 9b 7e 1b be ed 3b 0d be
       -0.14037699 0.078894116 -0.15185015 -0.13792391
000090 c0 7c 57 3d 4f 5e 78 bd c8 f8 49 3d bc 6c e1 3d
       0.052609205 -0.060636815 0.049309522 0.110070676
0000a0 8d f9 cb bd 60 bb 13 3d 6a 73 2a be 3f 23 fd 3d
       -0.099597074 0.036067367 -0.1664559 0.12360238
0000b0 62 ed c9 3d f7 21 ff 3d da f6 fc 3d e3 8c 12 3e
       0.0985973 0.1245765 0.12351771 0.14311557
0000c0 89 20 93 bd a8 43 37 be d9 3b 93 bd 5e 25 b7 bc
       -0.0718394 -0.17896903 -0.071891494 -0.022356685
0000d0 19 b7 82 bd ea a0 f8 bd 00 49 0f 3e dc 84 17 3e
       -0.06382579 -0.12140067 0.13992691 0.14796776
0000e0 3a aa 8a 3b 4d 12 c8 bd 13 50 b8 3c 00 8e 60 be
       0.0042317184 -0.097691156 0.02249912 -0.21929169
0000f0 6e 0c 06 3e 25 2c ae bd 9d 11 26 3e 84 fe f6 bd
       0.13090679 -0.08504514 0.16217656 -0.12060264
000100 ff 54 9e bd 3e 52 fa bb 2e 38 01 be d4 0e c7 bd
       -0.077310555 -0.0076391986 -0.12619087 -0.09719625
000110 61 54 41 3d 3b 18 2b be 9f 36 7c 3b fb 1c ed bc
       0.04719961 -0.16708462 0.0038484705 -0.028944483
000120 ea d2 17 bc 23 a0 20 3e 70 aa 14 be 12 a2 2c 3e
       -0.009266594 0.15686087 -0.14518142 0.168587
000130 48 05 a3 bd 0a e3 d0 3d 5c 96 36 3e b2 16 71 3c
       -0.07959992 0.10199554 0.17830795 0.014714884
000140 ce c6 0d 3c b9 87 dc bd 6a 31 c0 ba e6 e0 a6 bd
       0.008653356 -0.107680745 -0.0014663164 -0.08148365
000150 96 97 c9 3b 71 02 13 3e b8 b2 d2 bd 78 7c d4 bc
       0.0061521037 0.143564 -0.10287994 -0.025938258
000160 c7 17 b8 3d 25 34 af 3d a2 31 26 be 60 a7 1a bd
       0.0898891 0.08554868 -0.16229871 -0.037757277
000170 c1 71 b9 bc 29 d0 86 3d 82 cd 19 3e 8c 8d 13 3e
       -0.02263725 0.06582672 0.15019801 0.14409465
000180 e8 46 b5 3d f7 1a 00 be 7c 05 d4 3c ab d9 17 be
       0.08851415 -0.12510286 0.025881521 -0.14829127
000190 dc 35 b0 3c fa 5b ce bc 52 0d 9f 3c 0f 19 b7 3d
       0.021510057 -0.025190342 0.019415531 0.089403264
0001a0 e4 d2 97 3d 29 dd 1e be ea e8 9a 3d b3 3a ab bd
       0.07413271 -0.15514053 0.07563956 -0.08360805
0001b0 36 64 29 be 10 fb 8b 3d 12 e8 08 be 10 f0 a6 bd
       -0.16542134 0.06834996 -0.13369778 -0.08151257
0001c0 53 e6 d1 3d 9f 06 f4 bd d1 ca e0 3d 70 80 9d 3d
       0.10249009 -0.119153254 0.10976184 0.07690513
0001d0 50 cb 3d 3e 7c 9e 1c be e4 4a 95 3d 0b 09 bb bd
       0.18534589 -0.15294832 0.07289675 -0.09132584
0001e0 54 54 56 3d d2 f5 86 bd 42 65 39 3d f9 ff 48 be
       0.052326515 -0.06589855 0.045262583 -0.19628896
0001f0 52 ec 3b 3c 1b 7d 00 3e d0 02 2f 3e fd b3 30 bd
       0.011469917 0.12547724 0.17090917 -0.0431404
000200 f1 5c 63 be ee 4e f2 bd 19 01 00 3e 63 f0 eb bb
       -0.22203423 -0.11831461 0.12500419 -0.007200287
000210 5a 26 1a 3e 98 e0 b6 bd 11 6c 46 bd fa e2 8d 3d
       0.15053692 -0.089295566 -0.048442904 0.06928058
000220 02 53 b6 3d 16 82 f7 3d bc 60 1e 3e 0b 8a b8 bd
       0.08902551 0.12085359 0.15466589 -0.090107046
000230 ad 86 0f 3e 13 74 d5 3d 4e 42 55 3d 93 3f ef bc
       0.14016218 0.1042253 0.052065186 -0.02920512
000240 9d 19 cd bd 7e 84 4c be 31 2c a2 bd 71 e7 82 bd
       -0.10014651 -0.19972417 -0.07918585 -0.063918
000250 8f 86 50 3e d0 2b c8 3d 29 fb d7 3d 4b b6 35 be
       0.2036383 0.097739816 0.10545952 -0.1774532
000260 89 04 a7 3d 9b 1b 19 3e c0 1d 52 bd 41 6d 22 be
       0.08155162 0.14951937 -0.051297903 -0.1586199
000270 53 99 fa bb 6f 68 02 be c3 62 74 3d 87 1b a8 bd
       -0.007647672 -0.12735151 0.0596645 -0.082083754
000280 cf 1f 87 3d 4c 44 f1 bc fd 42 c5 bd e5 8f c7 bd
       0.06597864 -0.029451512 -0.096319176 -0.097442426
000290 a8 e0 94 3d ef 7e aa 3d 74 c6 e6 bd 05 18 7d 3d
       0.07269412 0.08324992 -0.11268321 0.061790485
0002a0 15 98 ea 3d f3 1b 01 bd a0 87 ce 38 94 ff ed 3c
       0.114547886 -0.031520795 9.8481076e-05 0.029052533
0002b0 da f3 1f 3e a8 ff 82 3d 1a 3c 28 3e 58 31 fb bd
       0.15620366 0.06396419 0.16429177 -0.12265271
0002c0 35 77 18 be 4c bf 56 be cb 11 06 bd 02 16 31 be
       -0.14889224 -0.20971411 -0.032731812 -0.17293552
0002d0 53 f0 13 3b 46 78 e9 bd 93 45 cb bd 33 80 99 bd
       0.0022573664 -0.113998935 -0.099253796 -0.07495155
0002e0 ea 7c cf bc 67 83 dd bd 6a c9 9d 3d 26 8e da bd
       -0.025328118 -0.10816079 0.07704432 -0.10671644
0002f0 a4 99 67 bd b5 a9 17 3e f8 6e 0e 3e ed 1d 9e 3d
       -0.056543007 0.14810832 0.13909519 0.07720552
000300 4f 70 84 be d4 2a ae bd a1 ef 96 3d cd bd 83 be
       -0.25866935 -0.085042626 0.07369924 -0.25730744
000310 9b 5c f1 3e 34 d3 82 3d e7 54 dc be 9e 60 20 3f
       0.47140965 0.0638794 -0.43033525 0.62647426
000320 d1 53 ab be 2d 1e 81 be 88 de b8 be f9 27 e5 be
       -0.33462384 -0.25218335 -0.36107278 -0.4475706
000330 c4 56 d6 3c 1f aa a8 3e db b3 45 bd e5 a0 4a 3e
       0.02616442 0.32942292 -0.048267227 0.19787939
000340 bf a4 19 be 16 da df be 2c 02 9e be 31 4b 98 bd
       -0.15004252 -0.43721074 -0.30861032 -0.074362166
000350 54 5e a5 3e de ec 6e bd 85 f3 f6 3e fa 63 9b 3d
       0.3229853 -0.058331363 0.48232666 0.075874284
000360 07 ca b3 bb 96 9b 5a 3e 61 fe c0 3e 9a 48 21 bf
       -0.00548673 0.21348414 0.37694076 -0.63001406
000370 f8 da e6 bd a3 d7 ee bd 1e c0 15 3e 81 90 a9 3d
       -0.11272234 -0.11662223 0.14624068 0.08279515
000380 c0 1c 1f be 25 ca e4 3c 74 45 20 3b 61 ef cc 3d
       -0.15538311 0.027928421 0.002445546 0.100065954
000390 17 a7 92 3d 36 06 06 3e 18 2b fe 3d 38 42 51 bd
       0.07160776 0.13088307 0.12410563 -0.05108854
0003a0 e9 70 83 bc 6e 5f 91 3d ff a2 7a 3d 1d 5e 2b be
       -0.01604505 0.0709828 0.0611906 -0.1673512
0003b0 47 22 36 bd 60 53 60 3d a3 f4 e8 3d 11 b4 e7 3d
       -0.044466283 0.054767013 0.11374786 0.11313642
0003c0 18 8f 9d bd 10 72 96 bc 36 32 73 bd e2 73 ad 3c
       -0.076933086 -0.018364936 -0.059374057 0.021173421
0003d0 e5 f6 88 3d 40 1d a6 bc 90 2e 48 bd 64 a9 19 3e
       0.066877164 -0.02027762 -0.04887253 0.15006024
0003e0 ea 1f 11 bd 28 49 89 bd 01 f2 d2 3d f7 a5 c1 3d
       -0.035430826 -0.067034066 0.10300065 0.094554834
0003f0 33 65 3c be 16 b6 29 be a2 84 83 bd a0 b3 11 be
       -0.1839798 -0.16573367 -0.06421782 -0.14228678

bias_ih_l0 f4 [128]
000000 7a 5d 10 be 0d e3 02 be 8f a7 f5 3d 45 42 0c 3e
       -0.14098158 -0.12781925 0.1199485 0.13697155
000010 40 d1 56 3e 10 af ed bd b3 a0 a9 3d a9 77 96 3e
       0.2097826 -0.11605656 0.08282604 0.29388168
000020 ab 0b 01 be b0 c8 86 3e 2a 00 3a 3e 2c 47 6d bd
       -0.12602107 0.26324987 0.18164125 -0.057929203
000030 7c 2a b4 bd df ac f6 bd 5a 24 e7 3d 7b 9a 4b 3d
       -0.08797166 -0.12044691 0.112862304 0.04970787
000040 38 51 03 bc 1a 1f 15 3e 06 ee 8f 3d ce 54 92 3d
       -0.0080149695 0.14562646 0.07027821 0.071450815
000050 5d 9e ab 3d db b6 21 be 80 1f 03 3e 3b 1a 2f be
       0.08379815 -0.1579241 0.12804985 -0.1709985
000060 3c e3 10 bd 31 bf bb 3d 11 5d 75 bd 5d 0f a4 3d
       -0.035372958 0.09167326 -0.05990321 0.08010743
000070 4e 0d 88 3d 31 db 8f bd bc 0a eb 3d 10 8c 84 bd
       0.06643163 -0.07024229 0.11476657 -0.06472027
000080 0b e3 31 be 2c e6 35 bd 10 d9 94 3d a8 ea 9e bc
       -0.17371766 -0.044408962 0.07267964 -0.019399002
000090 92 f0 dd 3d 31 5c 12 be 06 52 74 be a3 8b 02 bd
       0.10836901 -0.1429298 -0.23859414 -0.03187145
0000a0 39 ad 13 3d d4 61 f8 3c 27 15 09 3d f0 9a a6 bd
       0.03605387 0.030320086 0.033467438 -0.08135021
0000b0 f8 7d 38 be 99 66 48 3d d7 ee 56 3d 90 6a 87 3d
       -0.18016803 0.04892597 0.05247387 0.06612122
0000c0 1c b8 ed 3d 13 33 f6 3c e1 00 bd bb 48 2f a6 bc
       0.11607382 0.030053651 -0.005767927 -0.020286217
0000d0 94 15 76 bd 2a 8b 30 be 72 ac 42 bd 78 0f 51 bd
       -0.060079172 -0.17240587 -0.047527738 -0.051040143
0000e0 2c 78 da 3a 86 d7 35 be 31 a0 d9 bd b0 27 07 bd
       0.0016667894 -0.17757997 -0.10626257 -0.032996833
0000f0 c3 b5 58 3d 0c 26 87 3d 1b 5f 0d 3e 0b 0e 9c bd
       0.052907716 0.06599054 0.13805811 -0.07619866
000100 fb a8 f3 bd ca 67 28 3e 83 25 23 be 1e 91 9f 3d
       -0.11897465 0.16445842 -0.15932278 0.07791351
000110 f4 54 05 bd 03 1b d9 bd 1f 58 a7 bd 1e 6d 89 3d
       -0.03255172 -0.10600855 -0.08171105 0.067102656
000120 c4 bc 2d 3e f6 96 2e 3e cd 06 ca bc 09 e0 0c 3e
       0.1696654 0.17049775 -0.024661446 0.13757338
000130 bc e8 e3 bd 42 be ae bd 7a 59 63 39 3d e7 43 3d
       -0.11128375 -0.085323825 0.0002168174 0.047827948
000140 b4 cd f8 3d 02 04 e7 3d f1 13 7c 3d 35 60 33 be
       0.1214861 0.11280061 0.061542455 -0.17517169
000150 37 ca f2 bd ba c0 f6 3d a5 90 45 be ed d2 b2 39
       -0.11854976 0.120484784 -0.19293459 0.00034107958
000160 f8 cf a0 3c 5e 30 0c 3e 28 0c c3 bb a1 83 4b ba
       0.019630417 0.13690326 -0.005952377 -0.00077634497
000170 a8 9e 71 bd 15 dd 0d 3d b9 e4 cc 3d 69 26 24 be
       -0.058989197 0.03463467 0.10004563 -0.16030277
000180 1e ba b4 3c 0b ff 03 bd 8a b3 9d 3d ca fe ee 3c
       0.022061404 -0.03222565 0.0770026 0.029174227
000190 c7 f7 ae bd 11 d8 ff bd 6e 4d 74 3e d3 85 85 3e
       -0.085433535 -0.12492383 0.23857662 0.26078662
0001a0 9a 94 3e 3d ea 43 f4 3d b7 d8 85 3d 84 5a 73 3e
       0.046528436 0.11927016 0.06535476 0.23764998
0001b0 00 b0 3d be 41 50 b3 3d 42 5f 3f be c6 6b 45 bd
       -0.1852417 0.087555416 -0.18688682 -0.048198484
0001c0 aa 4e dd bd 3e fd 1e 3e f4 dd 94 3b f3 72 05 be
       -0.108060196 0.15526292 0.0045430604 -0.13032131
0001d0 9c 8f 14 3e 8c df da 3d 5a fd 8d 3d 08 72 1e be
       0.14507908 0.106871694 0.069330886 -0.15473187
0001e0 9d ce d4 3d 9d 34 2b bd e9 60 65 3e 33 c6 2f 3b
       0.10390971 -0.041798223 0.2240025 0.0026821017
0001f0 28 c1 27 bc 76 4b a9 3d d4 d5 bc bd ed 03 36 be
       -0.010238923 0.08266346 -0.09220472 -0.17774935

bias_hh_l0 f4 [128]
000000 06 29 4f 3e 45 08 2d 3e a7 ce e4 3d 9e dc f7 3d
       0.20230493 0.16897686 0.11172228 0.12102626
000010 be c9 92 3d 66 dd 26 3c cd 07 55 3e 5b 44 40 3e
       0.071673855 0.010184621 0.20803757 0.18776076
000020 ca 98 1c 3e dc 7b b6 3d 48 ae f4 3c e8 76 42 3e
       0.1529266 0.08910343 0.02986826 0.18990672
000030 50 b2 30 3d 80 c8 0d be e1 d5 a1 bd df be 8d bd
       0.043138802 -0.13846016 -0.07902122 -0.069211714
000040 8c c8 b9 bd 4b ee ce 3c a7 ba 9b 3d 67 8e 89 bd
       -0.090714544 0.025260111 0.076039605 -0.06716614
000050 35 4d 43 3e 25 59 db 3d 2f ad c5 bd 00 01 2c be
       0.19072421 0.10710362 -0.09652173 -0.16797256
000060 dc 54 f2 bd c5 a6 cb 3d 2e 95 2d 3e c9 25 a9 3c
       -0.11832592 0.09943918 0.16951439 0.0206479
000070 d6 9d be bd 17 f7 15 be ca b5 b8 3d f4 7a 86 3d
       -0.093074486 -0.14645039 0.090190485 0.0656642
000080 e9 46 89 3d f2 d6 11 bd b4 0a 04 3e b2 04 2d 3d
       0.06702978 -0.03560538 0.12894708 0.042240806
000090 74 a3 19 be 36 58 03 3e ae fd 7f 3d 4b 61 45 bc
       -0.15003759 0.12826619 0.062497787 -0.012047122
0000a0 25 0c 60 bd 76 03 f3 bd b0 42 13 3e c9 e3 7d bd
       -0.054699082 -0.118658945 0.14380908 -0.06198481
0000b0 fa 23 51 3d 62 ef ea bd b7 4e 6b bc 0c 16 0c 3e
       0.0510597 -0.1147144 -0.014362029 0.13680285
0000c0 08 06 2a 3c e7 1a 65 bd 87 e2 bb 3d 4c 03 d3 bd
       0.0103774145 -0.05593386 0.09174066 -0.10303363
0000d0 97 c5 8b 3d 54 59 f4 3d 90 10 22 be f8 75 2b 3d
       0.06824797 0.119311005 -0.1582663 0.04186055
0000e0 f0 6b 53 3a a1 f4 7a 3d d5 e7 80 bd e0 49 4d 3d
       0.0008065095 0.061268453 -0.062942185 0.05011928
0000f0 0f 12 0a 3c ef a3 a1 bd c1 83 1f be 87 20 3b be
       0.008427157 -0.07892596 -0.15577604 -0.18274127
000100 19 f9 c0 3d 1a 95 29 bd 13 59 09 bc 28 59 41 3e
       0.094225116 -0.04140196 -0.008383053 0.18881667
000110 5a 48 b4 bd 65 36 b7 bd 35 ff f2 3d d8 9a fd bc
       -0.088028625 -0.08945922 0.11865083 -0.030957624
000120 47 75 a9 3d 46 d5 8d 3c 26 3e 87 bb af e6 45 3e
       0.08274322 0.01731361 -0.0041272817 0.1932628
000130 da 55 1b 3d 62 e8 19 bd d1 50 84 3c 5b 16 1b 3e
       0.03792367 -0.037575133 0.016151818 0.15145247
000140 95 8a 22 3e 02 40 54 3d d0 8a 24 3e 37 35 07 3e
       0.15873177 0.051818855 0.16068578 0.13203894
000150 95 2f 0a be 29 7d 64 bd d5 ee 35 be 70 40 b8 3c
       -0.13494714 -0.055783425 -0.17766888 0.022491664
000160 ae db c0 bc 0f 70 1e 3d 39 f0 57 bc d6 14 8b 3d
       -0.023542251 0.038681086 -0.013179832 0.067910835
000170 f4 28 be bd c2 96 01 bd cc 0f 16 3e 49 67 cf 3d
       -0.09285155 -0.031637914 0.14654464 0.10127122
000180 1b 7a 16 3e 3c 6d 13 be a9 3f 20 be b6 4d 0d be
       0.14695017 -0.14397138 -0.15649284 -0.13799176
000190 79 45 6e bd ee 90 89 3d f2 7f 13 3e a8 0f ad 3e
       -0.058171723 0.06717096 0.14404276 0.33801007
0001a0 c3 bc 64 3d 05 ba 0c 3c b1 df 63 3e fa 2c 96 bd
       0.05584408 0.008589272 0.222533 -0.07332797
0001b0 03 af 9d 3d 03 63 bc 3d 70 9e 24 bd fb 54 19 3d
       0.076993965 0.091985725 -0.04019016 0.03743456
0001c0 0d 9a 2c be 21 35 28 3c 93 66 bf 3b 52 b0 5b bd
       -0.1685564 0.010266573 0.005841085 -0.05363495
0001d0 9a 43 db 3d 01 ef 59 3d 9a 1d c9 bd d9 c0 00 3e
       0.10706253 0.053206448 -0.09820099 0.12573566
0001e0 d5 9c 7a 3d cf 27 17 be 2d 0c 15 3e 60 16 07 3e
       0.061184723 -0.1476128 0.14555426 0.13192129
0001f0 69 6f 02 bd c3 6e fe bd 16 17 29 be 41 a2 ef 3c
       -0.03184453 -0.1242347 -0.16512713 0.029252173

weight_ih_l1 f4 [128, 32]
000000 a4 70 10 3e 53 ae de bc f5 fa 58 3c 06 eb c9 3b
       0.14105469 -0.027182734 0.013243427 0.00616205
000010 17 99 88 3c d1 60 41 be 95 4b b6 3e 4f e8 c8 3c
       0.016674561 -0.18884589 0.3560454 0.024524836
000020 d5 83 13 3e 35 88 1f bd 48 a5 6d be 5b a3 ba bd
       0.14405759 -0.038948257 -0.23207581 -0.09113189
000030 19 e3 02 bd 19 b2 40 be 6f d2 cd 3d a7 09 fe bd
       -0.03195486 -0.18817939 0.10049903 -0.12404185
000040 e6 b4 02 be 9d c2 cd bd ec 67 02 be a3 8c 1a bd
       -0.1276432 -0.10046885 -0.12734956 -0.037731778
000050 da 4f 11 be 0f bd 86 bd 89 40 dc bd b6 7a 94 bd
       -0.14190617 -0.06579029 -0.107544966 -0.07249968
000060 ae 08 ea bb 8f d0 ee bc 3b df 23 be b1 45 34 bd
       -0.007142148 -0.029152183 -0.16003124 -0.044011775
000070 e1 8c 72 bd 5f 78 1b bd 14 59 d1 bc b3 e3 05 be
       -0.059216384 -0.03795659 -0.025555171 -0.13075142
000080 e9 c0 60 bd 05 af 10 3d 20 f3 ee 39 4c 86 15 3e
       -0.054871473 0.03532316 0.0004557604 0.14602011
000090 45 91 9f 3d 03 a6 d1 3d ef 0d af 3e 61 c8 f1 3c
       0.0779138 0.10236742 0.34190318 0.029514493
0000a0 46 9d 28 3e 05 e4 e5 3d 86 65 a4 3d b6 a1 5b 3c
       0.16466245 0.11225132 0.080271766 0.013405254
0000b0 3f bc dd 3d 44 1e 38 b9 98 a5 a9 bc de f8 15 3b
       0.10826921 -0.00017558882 -0.020708844 0.0022883932
0000c0 b9 78 98 bd 1c e0 25 be 2b b6 a0 bd 24 3f 63 be
       -0.07444901 -0.16198772 -0.07847246 -0.22192055
0000d0 d9 22 78 bd 41 09 9a 3d 0e b4 d1 3a ed 94 cb 3d
       -0.06058011 0.07521296 0.0015999095 0.09940515
0000e0 5a d5 99 3c 2c 15 1d 3d c2 61 61 bd e9 96 4a be
       0.018778492 0.03835027 -0.05502487 -0.1978413
0000f0 ae b5 aa ba 79 b0 37 3e 07 ec 06 be 32 8c 9f bd
       -0.0013024115 0.17938413 -0.13175975 -0.07790412
000100 48 2b 6d 3e 5a 60 18 bd 6a 45 17 3e 15 48 96 3c
       0.23161042 -0.037201263 0.14772573 0.018344918
000110 5b fd 53 be 9a 3f e5 bd 81 07 e4 bd 83 1a f5 bd
       -0.20702116 -0.11193772 -0.11134244 -0.11967947
000120 7a ac 9a 3c 01 20 e8 3d c0 cc 5d bc 33 77 7d bc
       0.018881071 0.11334229 -0.013537586 -0.015470314
000130 d6 ed d8 3d 7d 62 da bd a8 32 d8 bd e2 42 8e 3d
       0.105922386 -0.106633164 -0.10556537 0.06946351
000140 15 55 3c 3c c6 f2 cf bc 7d 08 0e be 33 1b b9 3d
       0.0114948945 -0.025384318 -0.13870426 0.09038391
000150 ab 1c f0 bc 81 c3 2f be 96 40 27 bd 07 85 c9 bd
       -0.029310545 -0.17164423 -0.04083308 -0.09839826
000160 4d 8d ee 3c 07 00 8d 3d b5 bb ec 3d da 4a c2 bc
       0.029120112 0.06884771 0.1155924 -0.023717333
000170 16 99 86 3c 4d 26 11 bd 6e 5e 24 bd 40 b6 07 be
       0.016430419 -0.035436917 -0.040129118 -0.13253117
000180 b0 7b 98 bc 0f 9e ac bc b5 50 0d 3e 50 ff 5c 3d
       -0.018613666 -0.021071462 0.13800319 0.053954422
000190 74 62 62 bd 40 27 ba 3c 5f 90 f0 3d ee be 15 3e
       -0.055269673 0.022723794 0.117462866 0.14623615
0001a0 a8 3e b1 3d e2 53 77 3d b2 71 43 bc 73 98 dc bc
       0.08654529 0.06038273 -0.011928963 -0.026928162
0001b0 10 9c 8f 3c b1 6b 19 3e bf a5 dd bd ca b1 35 bd
       0.017530471 0.14982487 -0.10822629 -0.044359006
0001c0 c3 14 d4 3d 83 08 de bc 7e 8c 11 3e 05 10 50 3d
       0.103555225 -0.027103668 0.1421375 0.050796527
0001d0 72 e8 50 3d ba 5a 97 bd 92 36 66 bd 3b 53 b3 3d
       0.051002927 -0.073903516 -0.056204386 0.08756109
0001e0 55 36 5a 3d f4 56 20 bd 80 9e b3 bc 6b 52 c5 bd
       0.05327447 -0.039145425 -0.021926165 -0.096348606
0001f0 46 e8 77 3d ec d8 c0 bd ca 79 8e bd 83 ce de bd
       0.060524248 -0.094163746 -0.06956823 -0.10879233
000200 bb 58 94 3d 0a 05 2c 3e 10 8d c5 bd 26 34 cb 3c
       0.072434865 0.16798797 -0.09646046 0.02480514
000210 3e c5 86 bd 48 bc 99 3d c0 1e 03 3e 40 6c 99 bc
       -0.0658059 0.07506615 0.12804699 -0.018728375
000220 88 52 a4 3c 73 70 01 be c2 ea 15 bc 12 5c 99 3d
       0.020058885 -0.12640552 -0.009150209 0.07488264
000230 2b 3c 3f 3c 1d 55 df 3d b8 eb 2f 3d 56 eb 19 be
       0.01167206 0.10904906 0.04294941 -0.1503118
000240 e6 7c 8b 3d 2c 64 41 be 0e dd 09 3d d4 3b 9d 3d
       0.06810932 -0.18885869 0.03365808 0.07677427
000250 1b 99 94 bc 7e a6 de bd d5 71 37 3d fd 5d c5 bd
       -0.018139413 -0.108715996 0.044786293 -0.096370675
000260 3c 7f 2f bd 67 c3 d8 3d 01 36 48 be 6e ab b9 bc
       -0.04284595 0.10584145 -0.19551851 -0.022664752
000270 08 bb 89 3d 2e 3c e4 bd 23 de c6 bc fd b8 4d be
       0.067251265 -0.11144291 -0.024275845 -0.20090099
000280 16 e5 2c 3e 76 63 dd bd bd 69 19 3e fc d8 3b be
       0.16884264 -0.10809986 0.14981742 -0.18344492
000290 8c 12 fb 3d 8b d6 12 3d 25 e8 49 3e a3 1f 2d be
       0.12259397 0.035849135 0.19717462 -0.169066
0002a0 db ea 21 be 20 a4 15 3e f9 90 17 be 9c 1f 54 bc
       -0.15812247 0.1461339 -0.14801396 -0.012946989
0002b0 2f 63 11 be 59 4b 34 3d 88 77 aa ba 8a 71 56 bd
       -0.14197992 0.04401717 -0.0013005594 -0.052354373
0002c0 de 3c d0 3d d0 23 82 bd 70 a0 e4 3d 30 3e 04 be
       0.101678595 -0.06354487 0.111634135 -0.12914348
0002d0 9a db 01 be a1 64 f7 bd ab 57 5f 3d 10 7d 1b 3c
       -0.12681428 -0.1207974 0.054526966 0.009490266
0002e0 fe 82 0b 3d dd e0 ef 3d 2b 92 f0 3d 99 a5 10 be
       0.03406047 0.11712811 0.11746629 -0.1412567
0002f0 6f 79 10 3e 7e f0 05 3e 2e c2 3d bd b7 db 85 bd
       0.14108823 0.13080022 -0.046327762 -0.06536048
000300 34 e5 a0 bd d5 b9 56 3e 0e ea 1a 3d db ea fc bd
       -0.07856217 0.20969327 0.03782087 -0.123494826
000310 78 ac c5 3d a7 0d 45 3e 9b c9 29 3d 7c 6a f1 bd
       0.096520364 0.19243489 0.04145203 -0.117878884
000320 ee 42 43 3e 76 03 2b 3e dd 29 a9 3d 3c f0 c3 bd
       0.190685 0.16700539 0.08259938 -0.095673054
000330 23 b5 00 be 91 f9 49 be 34 53 ed 3d 33 0f 70 bd
       -0.12569098 -0.19724108 0.11588135 -0.058608245
000340 09 f7 de bd 99 b3 83 3d 8d 58 5e bc da aa 72 3c
       -0.10886962 0.0643074 -0.013570917 0.014811242
000350 0b 9e 1f be 4a 9c 40 3c 03 d7 9a 3d 3c 06 3c 3e
       -0.15587632 0.011756012 0.075605415 0.18361753
000360 48 42 6f bd 66 c6 2f be 3d 90 23 bd fc f2 01 be
       -0.05841282 -0.17165527 -0.03993248 -0.12690347
000370 3e 22 ef 3c 3b d3 e0 3d 9d 7b c8 bd b0 01 2c be
       0.029191133 0.10977789 -0.09789202 -0.16797519
000380 2f bb bb 3d d7 97 95 3d 4e 36 32 3e ed da 3a be
       0.09166562 0.07304352 0.17403528 -0.18247576
000390 9e 91 9f 3d c8 32 f4 bd 62 78 5f 3e e1 f6 82 bc
       0.07791446 -0.11923748 0.21823266 -0.015986862
0003a0 00 83 4f 3d 9e 37 ef 3c 81 cf f5 bd e6 71 9e bd
       0.05066204 0.029201325 -0.12002469 -0.07736568
0003b0 56 35 b5 3c dc 09 fa 3b 36 65 0c 3e ea 56 3a be
       0.02212016 0.00763057 0.13710484 -0.18197218
0003c0 46 14 f6 bd 55 35 27 bd ca c8 f3 bd 9b 47 32 be
       -0.120155856 -0.040822346 -0.11903532 -0.17410128
0003d0 0e f8 a3 bd 8d 9f f8 bd ec c2 c7 3d dc 22 d8 3d
       -0.08006297 -0.12139807 0.09753975 0.10553524
0003e0 ff 82 0b be 39 4e f1 3d e9 79 4e 3c b7 a4 3d be
       -0.1362419 0.11782498 0.012602308 -0.18519865
0003f0 df f5 51 bb 6d d6 88 3d 15 fd ba bc 7c f2 16 be
       -0.003203742 0.066815235 -0.022825757 -0.14740938

weight_hh_l1 f4 [128, 32]
000000 39 61 8d 3d 6c a3 72 bc e0 b2 13 3e 31 62 05 be
       0.069033094 -0.014809471 0.14423704 -0.13025738
000010 90 f5 6d 3e a5 6c 7e be 1b c8 4e be 1f 89 1f 3e
       0.23238206 -0.24846132 -0.20193522 0.15579651
000020 7c d2 fc bc 3a c6 d3 3d f2 8f 73 be 3a 33 7f be
       -0.030862086 0.10340543 -0.2378538 -0.24921885
000030 59 a6 be bd 51 91 c4 bc 9c f0 1e bd d7 d3 76 bd
       -0.09309072 -0.023995074 -0.03880368 -0.06026062
000040 46 03 fa bd 2f 8b ef 3d 4a 35 ff 3d 13 13 57 3d
       -0.122076556 0.11696469 0.12461336 0.052508425
000050 69 94 40 be 39 4e 8e bd fe 07 c2 3d e2 b4 98 bd
       -0.18806614 -0.069485135 0.09474181 -0.07456376
000060 33 56 14 3d d1 64 f6 3c a2 6e 51 3e 69 fd cb 3d
       0.03621502 0.03007737 0.2045236 0.099604435
000070 42 55 0a b9 52 61 87 38 e9 2d 2e 3e f6 de 9c bd
       -0.00013192467 6.455429e-05 0.17009701 -0.07659714
000080 1c ac 01 be 3b 59 54 3d 02 e3 8a 3d b1 8e f9 bd
       -0.12663311 0.05184291 0.067815796 -0.12185419
000090 d1 c8 74 3e 02 7c 61 ba 56 89 a8 3b 02 75 11 bd
       0.2390473 -0.00086015475 0.005143325 -0.035511978
0000a0 93 e8 e9 3d b6 c6 3b 3e cc 7b 5d bd 9a 24 90 3d
       0.11421313 0.18337521 -0.05407314 0.07038231
0000b0 c9 23 41 bd cb 81 65 be f9 e7 6e bd e0 b0 18 be
       -0.047153268 -0.22412793 -0.058326695 -0.14911222
0000c0 65 30 2b be e6 95 6b 3d 46 09 2f 3e d5 fe 6a 3d
       -0.1671768 0.057516 0.17093381 0.057371933
0000d0 96 b7 1b be c4 b1 da bd 1b a4 1b 3e bc db 09 be
       -0.15206751 -0.10678437 0.1519932 -0.13462728
0000e0 a5 ca 50 3e 12 5d 17 be 5b 7e 36 3e 08 5f 66 3d
       0.20389803 -0.14781597 0.17821638 0.056242973
0000f0 b9 ed e4 3d f8 a2 a1 3d 44 db 55 bd a8 04 db bd
       0.111781545 0.07892412 -0.05221106 -0.106942475
000100 56 d9 1c bd 94 8d a9 bd 71 84 82 3d 44 69 1f 3d
       -0.038293205 -0.08278957 0.063729174 0.03891875
000110 95 00 31 3e f4 27 5f bd 7a 44 e6 3d a8 03 4a 3d
       0.17285378 -0.05448146 0.112435296 0.049319893
000120 33 19 e1 3d 80 81 64 3e 84 d8 e5 bc 45 82 3b be
       0.109911345 0.22315025 -0.028057344 -0.18311413
000130 2f 3c 4f 3d 62 e9 74 3d 11 06 85 3d 29 3b f1 bd
       0.050594505 0.059792884 0.06495298 -0.11778862
000140 49 28 83 3d 04 ff c4 bd a3 2f ca 3b b3 77 fd 3b
       0.06404168 -0.09618953 0.0061702295 0.0077352165
000150 97 d8 8e 3d 31 37 98 3c fb 08 b3 bc 2e ea 54 3e
       0.06974905 0.018581005 -0.021854868 0.20792457
000160 1a 72 bc 3d c3 d6 69 be 8a f0 80 bd 55 39 83 bd
       0.09201451 -0.22835831 -0.06295879 -0.064074196
000170 8f 56 fe 3d ab 8a ff 3d 10 77 30 3e 8b 38 a4 be
       0.124188535 0.12477621 0.17232919 -0.3207439
000180 bc db 3c 3e 9f 06 3f 3d 4d a8 cf bd fa 70 8f bd
       0.18443197 0.046637174 -0.10139523 -0.070039704
000190 94 11 b8 bd 34 c2 5f 3e 5a aa a8 bd f0 4a 92 bd
       -0.08987728 0.21851426 -0.08235617 -0.071431994
0001a0 b8 53 a8 3b 57 fc e0 3d a1 47 00 be 7c 86 c1 bd
       0.005136933 0.1098563 -0.12527324 -0.09449479
0001b0 79 cd ef bc 54 7b 26 3e 13 cd 8c bd 9a 31 61 be
       -0.029272782 0.16257983 -0.06875052 -0.21991578
0001c0 5c 5d d5 bd 48 a3 04 bd 7e 5e 01 3e 12 af 0b 3e
       -0.104181975 -0.03238228 0.12633702 0.13641003
0001d0 71 42 60 3d 0a 8a 9d bd 4b 0a a8 3d 17 8a 4e 3d
       0.054750863 -0.076923445 0.08205088 0.05042466
0001e0 23 5f f6 3c 38 97 af 3a 0d a6 d6 3d cc 86 e4 bc
       0.030074662 0.0013396507 0.104808904 -0.027896307
0001f0 6f 04 46 3d 23 88 30 3e e1 a8 8b 3c a3 0f 92 be
       0.048344072 0.17239432 0.017048301 -0.28527555
000200 a5 1a 69 3d b3 4e 11 3e c9 a8 8e 3d 8b 83 1b 3d
       0.056910176 0.14190178 0.06965787 0.037967246
000210 60 56 97 bd ad eb e7 3d a5 46 23 bc 32 87 81 bd
       -0.073895216 0.113242485 -0.009965573 -0.063246146
000220 64 b8 2e 3e b3 b5 ae bd bf 06 e4 3d c2 77 14 3e
       0.17062527 -0.0853075 0.11134099 0.14498809
000230 89 de 2c bd 38 0a 2d be 10 d3 db 3d 76 62 09 be
       -0.042204414 -0.1689843 0.10733616 -0.13416466
000240 19 03 86 3d b7 90 54 bd e7 4e 6c 3d 8e 40 17 3e
       0.065435596 -0.051895823 0.057692435 0.1477072
000250 49 3f 6c bd 45 23 a3 bd 5d 04 c1 3d f8 f2 0b 3e
       -0.05767754 -0.079657115 0.0942466 0.13666904
000260 14 21 13 be df 94 d1 3d 19 28 47 3d ad ca 7c 3d
       -0.14368087 0.10233473 0.048622224 0.061716724
000270 d4 60 23 be 06 bd a6 bd 5b 4d 9e bd 3a e3 6c be
       -0.15954906 -0.08141522 -0.07729598 -0.23133555
000280 08 4a 2a be 2e 66 60 3e 93 5e 84 bd 66 16 d9 3c
       -0.16629803 0.21913978 -0.06463351 0.026499938
000290 52 f6 a2 3c 71 c0 2d bd 2c 43 80 be f7 00 70 3d
       0.019892845 -0.042419855 -0.25051248 0.05859467
0002a0 bf 50 d6 bd 78 70 05 3d 7e d1 fc bd 8c 56 b3 3d
       -0.1046462 0.03257796 -0.12344645 0.08756742
0002b0 98 68 2a be 61 90 8a 3d 24 fc 9e 3d a3 af c7 bd
       -0.16641462 0.06765819 0.07762936 -0.09750297
0002c0 ee eb 14 3b a9 ed 15 3a 8a dc 9a 3d 32 2f 22 be
       0.0022723633 0.0005719313 0.07561596 -0.15838316
0002d0 69 da f4 bc 26 24 c5 3d 99 07 38 3e 90 c0 18 be
       -0.029889302 0.096260354 0.17971648 -0.14917207
0002e0 e0 9b 9e bd 31 e2 4f bd b1 b3 2a bd a1 47 0d bd
       -0.077445745 -0.050752822 -0.041675273 -0.03449214
0002f0 50 11 99 bd aa db 16 be 06 c4 a9 3c 56 1b 51 be
       -0.07474005 -0.14732233 0.020723354 -0.20420584
000300 1a 73 32 be db 54 dd 3b 2c 98 e5 bd a7 cd 97 3c
       -0.1742672 0.0067545003 -0.11210665 0.01853068
000310 d6 f6 04 be c1 f6 69 bd 79 88 41 be 38 9d 64 bd
       -0.12984785 -0.05712009 -0.18899716 -0.055813998
000320 ff f1 19 3e c0 f9 18 3e df 29 30 3d b6 6e 78 bd
       0.1503372 0.14939022 0.04300868 -0.060652457
000330 9c 31 2b be 7c ec cb 3d 37 7c 13 3e e6 3b 1b 3d
       -0.16718143 0.09957215 0.14402853 0.03789892
000340 6c 74 c1 ba 86 fc 0a 3e f6 8d 60 3d 2c 05 91 bd
       -0.0014759428 0.13572893 0.054822885 -0.070810646
000350 48 ff 05 3d ed cf 1d bd 20 f6 34 be d8 ca 91 bd
       0.03271416 -0.03852837 -0.17672014 -0.071187675
000360 b7 ae ef 3d 43 2a eb 3d 23 18 71 bd 46 23 47 3e
       0.11703246 0.1148267 -0.05886091 0.1944705
000370 2d 5b 12 be 97 dc 78 bc e7 a2 36 bd 80 3f 8a be
       -0.14292593 -0.0151893115 -0.04458895 -0.27001572
000380 af 98 3c 3d d7 ce f3 3c 03 48 66 3e ce b0 bd bd
       0.046044048 0.029761715 0.22488408 -0.092622384
000390 0b 66 bc bd ea 39 54 be 56 57 70 3d da 8b bd 3c
       -0.09199151 -0.20725217 0.05867704 0.023137975
0003a0 0c 17 66 3c 80 45 b4 3c 5f 2f 80 3d 96 cd 27 be
       0.014043581 0.022005796 0.06259035 -0.16387019
0003b0 61 62 2b bd 7c 63 2d bc 75 76 37 be 06 6a af bd
       -0.04184187 -0.010582801 -0.17916282 -0.08565144
0003c0 90 7c 4e 3d 08 95 ea bd 09 72 88 3d 9e b1 9b bd
       0.05041176 -0.11454207 0.066623755 -0.07602237
0003d0 d4 75 85 3d 0b 91 cf 3d 85 34 01 3e 73 c4 4d 3d
       0.065166146 0.101350866 0.12617691 0.050236177
0003e0 4c 72 db bd e3 0b f1 3d 0a c0 2f 3d d7 4f e2 3d
       -0.1071516 0.11769845 0.042907752 0.110503845
0003f0 a9 50 6e 3d 71 c8 0f bd f9 9f e7 3d fc be d7 3c
       0.058182392 -0.035103265 0.11309809 0.026336186

bias_ih_l1 f4 [128]
000000 0e dd 3b 3e da 26 c4 3d 11 87 ce bd 7d 7d 24 3d
       0.18346044 0.09577723 -0.100843556 0.040158737
000010 70 04 1e 3e 32 41 df bc d1 fa a3 bd 8b a0 8a 3d
       0.1543138 -0.027252767 -0.08006824 0.067689024
000020 01 71 b6 bd 17 a0 8d 3e 66 ff 43 3e 1c e2 9c bd
       -0.089082725 0.276612 0.19140396 -0.076603144
000030 68 50 ff bd bb c1 95 3d a3 22 8c bb bb 97 67 3e
       -0.12466508 0.07312342 -0.00427659 0.22616474
000040 c5 93 bd 3d f6 ad b5 bd b9 3d a4 3d 0a 41 b8 3d
       0.092567004 -0.08871071 0.08019585 0.0899678
000050 16 a2 e4 bd b1 5d c7 bd 1e ae 23 be 08 53 16 be
       -0.11163728 -0.09734667 -0.15984389 -0.14680111
000060 53 a5 d7 3b 0d 85 14 3d be 0e 0a 3e ca a9 27 bd
       0.0065809875 0.0362597 0.13482186 -0.040933408
000070 70 f1 9e bd 17 da 22 3e 0f 7e 33 3e 41 59 fe bc
       -0.07760894 0.15903507 0.17528556 -0.031048419
000080 d8 be 25 3d 2d 18 2c bb 57 d0 8b 3d 46 0e d6 bd
       0.040465206 -0.0026259527 0.06826847 -0.10451941
000090 3d c1 16 bc a6 f3 01 bb 6a 0d d3 3d 93 2e b0 3c
       -0.009201345 -0.0019829064 0.10305293 0.021506583
0000a0 81 c6 c7 bd 17 f2 7a 3d 72 a8 cb 3a 4a 97 87 ba
       -0.097546585 0.06126603 0.0015537872 -0.001034477
0000b0 df 90 3b bc 3e cd 36 be e7 07 71 3d ac 67 2b bd
       -0.011448114 -0.17851731 0.058845427 -0.041846916
0000c0 af e5 51 bd f0 a5 9b 3c 49 af 08 be 40 0f 68 3d
       -0.051244434 0.019000024 -0.13348116 0.05665517
0000d0 c4 8c 7c bd b9 3b af 3d 8a 9c 13 3e 52 0b 84 bd
       -0.061657682 0.08556313 0.14415184 -0.06447472
0000e0 da 3c 17 3e 86 f9 aa bd 65 4e f0 bd 06 b1 9c bd
       0.14769307 -0.08348374 -0.117337026 -0.07650952
0000f0 d9 08 29 be 29 79 09 3e 4d 36 48 be bd 64 57 be
       -0.16507281 0.13425125 -0.19551964 -0.21034522
000100 c2 d6 49 3e fc 67 51 be 33 40 e8 3c b0 da fc 3d
       0.1971083 -0.20449823 0.028350925 0.12346399
000110 0b 29 39 bd e6 62 34 3b 43 1b 4a bc f0 35 bf bd
       -0.045205157 0.0027524768 -0.012335601 -0.0933646
000120 79 45 e4 3d b4 d8 5d be ee e4 6e 3e 42 55 0b bd
       0.11146063 -0.21664697 0.23329517 -0.034016855
000130 83 64 8e 3d 43 c1 83 bc 62 7b 6f 3d de 8b 4d 3e
       0.06952765 -0.016083365 0.058467276 0.20072886
000140 c8 4f 2e 3e 6a 47 94 3d e3 c3 25 be 3e c2 0b 3e
       0.17022622 0.07240184 -0.16188006 0.13648316
000150 3a b0 b8 3d 8a 89 0a be 9b 28 09 bd eb 8e 18 3e
       0.090179875 -0.1352903 -0.03348599 0.14898269
000160 12 bf 83 bd 40 d4 44 bd cf 6b 18 be f2 5a 3b 3d
       -0.06432928 -0.04805398 -0.14884876 0.04574103
000170 7d 2b ab bc 57 ec f2 ba 61 8e 3b be 4b 58 c4 bc
       -0.02089476 -0.001853357 -0.18316032 -0.023967883
000180 43 22 da bd 44 bf f0 bd 8f 44 0c 3e 38 4a 3d 3d
       -0.10651066 -0.11755231 0.13698028 0.04621336
000190 85 f8 29 3e 61 60 c4 bd b7 48 16 3d d1 1d e8 bc
       0.16598709 -0.09588695 0.03669044 -0.02833453
0001a0 67 97 81 3b 1b 5d d8 3d 57 8b 67 3e 62 12 ce 3c
       0.003954816 0.105646335 0.22611748 0.02515525
0001b0 f3 3e c2 bd eb 88 ee bd 70 5c d5 bd 6c a1 b7 3c
       -0.09484663 -0.11647209 -0.10418022 0.02241584
0001c0 09 f5 08 be fa 2d 8b 3c 5d 1c 20 be d3 a0 12 be
       -0.13374723 0.016989697 -0.1563582 -0.14319162
0001d0 46 a3 86 3d 60 7b 76 bd f5 af 02 be 8d e7 87 3d
       0.06574111 -0.060176253 -0.12762435 0.06635962
0001e0 b3 97 74 3d f1 ef 48 3e d2 23 18 bd 31 51 0b 3e
       0.059714984 0.1962278 -0.037143536 0.13605191
0001f0 aa 13 55 bd 0c 6d 02 3e ed b9 06 3e a8 ee 12 3e
       -0.052020706 0.1273691 0.13156863 0.14348853

bias_hh_l1 f4 [128]
000000 61 09 e9 bd 78 5b 95 3d f4 b7 af 3a 24 87 ca bd
       -0.11378742 0.07292837 0.0013406263 -0.09889057
000010 d6 62 09 3e 44 10 da bd cb 6f ab 3d 23 39 82 3d
       0.13416609 -0.10647634 0.08370932 0.06358554
000020 71 be c2 bc 95 5e 85 3e 02 05 4b 3e 52 f1 27 3e
       -0.02377245 0.26048723 0.19826129 0.1640065
000030 ae 6e 2c 3d 8d 63 ad bd ab 15 98 3d d7 53 2d 3e
       0.04209774 -0.084662534 0.07426008 0.16926514
000040 7a 45 15 bd 3c 37 4e 3d 49 55 92 bd b6 40 a7 bb
       -0.03644321 0.050345644 -0.07145173 -0.0051041497
000050 ca b6 d2 bd f2 d2 23 be 92 63 dd 3b 26 d9 95 3d
       -0.102887705 -0.15998438 0.0067562545 0.073168084
000060 ab 8c f4 3d 3a 7d 9d bd 36 b1 d1 3b 5f a4 04 be
       0.11940893 -0.07689901 0.006399299 -0.12953328
000070 32 71 83 3d 59 c6 a4 3d 31 bd f3 3d 78 aa 08 3d
       0.06418075 0.08045644 0.1190132 0.033365697
000080 04 e7 2b be 90 cf d0 3c 87 60 e4 bd 88 26 5f bd
       -0.16787344 0.025489599 -0.11151224 -0.054480106
000090 4b 42 f4 bd 45 4f 47 be 32 96 90 3b dc af 5a be
       -0.11926707 -0.19463833 0.004412436 -0.21356148
0000a0 b8 8a ed bc 67 2d ba bc 59 ae 12 be 44 3d c3 3d
       -0.02899681 -0.022726728 -0.14324321 0.0953317
0000b0 33 c8 1d 3e e7 ae 92 ba 47 09 12 3d f5 a3 b1 3d
       0.15408401 -0.0011191041 0.03565338 0.086738504
0000c0 29 9e a3 3d 9b dc 3e be 45 91 99 3d 0e 63 b6 bd
       0.07989151 -0.18638842 0.07498411 -0.08905612
0000d0 e4 0e b3 bd 51 8a 65 bc fc e3 4f bc ee fc f3 3d
       -0.087430745 -0.014010028 -0.012688633 0.11913477
0000e0 2f 82 a4 3d 6d 2a 62 be 2f d2 a0 bd 83 45 4d be
       0.08032643 -0.22086497 -0.07852589 -0.20046048
0000f0 37 b8 a2 3d 60 fe 0d be 6f 26 09 3e 7d 93 e9 bd
       0.079452924 -0.13866568 0.13393568 -0.11405084
000100 72 dd 28 3e 79 7a 81 bc 60 14 5a be b9 5b 91 bd
       0.16490725 -0.01580547 -0.21296835 -0.07097573
000110 66 57 f5 bd 30 bd 13 3e 10 85 28 3e 36 61 09 be
       -0.119795606 0.14427638 0.1645701 -0.1341599
000120 5c 6d c4 3d 3f 91 12 3d 91 ad 4d 3e 2b 38 d9 3d
       0.09591171 0.03578305 0.20085742 0.10606416
000130 b4 af a8 3d 9e c8 40 3e 32 5b 21 3e 5c 3b 3e bd
       0.08236638 0.1882653 0.15757445 -0.04644333
000140 57 f6 67 3d 0f 13 f0 bd b9 31 01 be 3b 87 0e 3e
       0.056631412 -0.11722385 -0.12616624 0.13918774
000150 89 87 b8 3d ce 01 1a 3d 9d 26 d3 3c 5f 7d eb bd
       0.09010226 0.037599377 0.025775248 -0.11498522
000160 59 aa 24 be d9 3a 15 be 7b b4 35 3d 89 e7 20 be
       -0.16080607 -0.1457323 0.044361573 -0.15713324
000170 b3 78 98 3d ed fe 29 3e 51 09 ba 3d bd c5 a3 bd
       0.074448965 0.16601153 0.09083808 -0.079967
000180 69 87 2c 3e 5d b4 6a bd 8e 0b 19 3e b1 51 f8 bd
       0.1684853 -0.057300914 0.14945814 -0.121249564
000190 f5 34 bd bd d3 8d b3 bd 11 db 66 bd a8 50 34 be
       -0.092386164 -0.08767285 -0.05636126 -0.17608893
0001a0 70 9d 1a 3e 4a 97 02 3e f2 91 6f 3e 1e db 99 bc
       0.1509912 0.12753025 0.23395517 -0.018781241
0001b0 63 1c 35 3e 13 37 c7 3d 78 42 34 be 0c 9e 17 3e
       0.1768661 0.097273014 -0.17603481 0.14806384
0001c0 47 02 b1 bd ac c4 1d 3e 37 eb 8f bd 5b 88 12 be
       -0.086430125 0.15407056 -0.070272855 -0.14309828
0001d0 49 7b 8b 3d 77 aa 95 bc c3 a0 9a 3d 01 52 b2 3d
       0.06810624 -0.01826976 0.07550194 0.08707047
0001e0 22 e0 be bd b7 b6 b2 bd 76 54 30 3d 67 5a 02 bd
       -0.09320094 -0.08726256 0.0430493 -0.031824496
0001f0 18 97 e5 bd 6d b0 25 3e 81 92 12 be dd 4a eb 3c
       -0.112104595 0.16180582 -0.143137 0.028722221

weight_ih_l2 f4 [128, 32]
000000 e4 b2 df 3d d1 3c 10 3e 43 c0 0f be a5 c0 80 bd
       0.109227926 0.140857 -0.14038186 -0.06286744
000010 58 95 49 3d 7d da 13 3d dd 5c f4 bd e2 38 e4 bd
       0.04921469 0.03609704 -0.11931775 -0.11143662
000020 20 f3 3c bd a7 f0 1f 3e 16 d5 34 bd 9e 60 fa 3d
       -0.0461303 0.15619145 -0.044148527 0.122254595
000030 70 6e 04 bd 41 28 ef 3d de b6 81 3b a4 33 0d be
       -0.032331884 0.116776 0.003958567 -0.1378923
000040 a2 7d 78 3d 01 70 ba 3c c5 62 f6 bd 95 14 bb 3d
       0.060666688 0.022758486 -0.120305575 0.09134785
000050 2f f8 93 bd 6e d7 27 ba 87 73 b7 bd 7b 64 6c 3e
       -0.07225072 -0.0006402646 -0.08957582 0.23085205
000060 7e 99 b1 bc a7 b7 da 3c 3a be be 3d 26 b6 18 3e
       -0.021679636 0.0266989 0.093136266 0.14913234
000070 4f 9c 24 be a1 d4 33 3e 02 d4 06 bd 3b 1e 4c be
       -0.16075252 0.1756158 -0.03291703 -0.19933407
000080 25 1a 40 3e 80 4a 16 be 5f f4 1e 3e 5c 11 f9 bd
       0.18759973 -0.14676857 0.15522908 -0.12161514
000090 e8 92 dd bc c0 b5 42 bd 86 75 07 3e 6e 18 55 3d
       -0.02704759 -0.04753661 0.13228425 0.05202525
0000a0 d9 3b 27 3e af 31 c1 3d 3c 71 cd bd 3d 02 0e 3e
       0.16331424 0.094333045 -0.10031363 0.13868041
0000b0 54 28 a5 3b 93 77 4c 3c 6e 86 11 3e f6 1b ef 3d
       0.005040208 0.012479681 0.14211437 0.11675255
0000c0 eb 35 a5 bd a2 87 ca bd b3 23 17 3e 22 a8 68 bd
       -0.08066925 -0.09889151 0.14759712 -0.05680097
0000d0 43 bd 42 bc 90 ca 1b be a2 de b8 3d 26 3d b1 bd
       -0.011885944 -0.1521399 0.09026839 -0.08654241
0000e0 c5 f1 1d be aa 7f c8 3d de bb de bb f0 d2 c0 bd
       -0.15424259 0.09789975 -0.006797298 -0.09415233
0000f0 d3 2b d7 bd 3f 91 19 be 09 78 cb bd 99 29 13 be
       -0.10506406 -0.14996813 -0.09935004 -0.14371337
000100 c6 cd 00 be 98 05 38 3e e1 17 f9 3c b9 2e 09 3e
       -0.12578496 0.17970884 0.030406894 0.1339673
000110 22 36 0d 3e dd 1c 10 bc aa 4b cf bd af aa 20 3e
       0.13790181 -0.008795944 -0.10121854 0.1569011
000120 fd 68 00 bd a7 80 c7 bc f7 ec 86 3c a5 77 3a bd
       -0.031350125 -0.024353338 0.016470416 -0.04552426
000130 b3 b5 0f 3d bb 20 06 3e f0 9e 0e 3d ef 36 8f 3c
       0.03508539 0.13098423 0.034819543 0.017482249
000140 0f 53 19 bb 67 6e 68 3d 98 81 b2 3d 1b 69 89 3d
       -0.0023395454 0.056745913 0.08716124 0.067095004
000150 db a8 e2 3d 4d 7b 96 bd 05 3d d0 3d a7 b0 71 3d
       0.11067363 -0.073477365 0.101678886 0.05900636
000160 1c b8 2c be f7 83 0c 3c d5 ee aa 3c 4c 42 ef 3d
       -0.16867107 0.008576385 0.020865837 0.11682567
000170 97 cf 9b bd e4 64 70 3d a8 a1 c2 3d ee 38 22 be
       -0.07607954 0.058689967 0.0950349 -0.1584203
000180 9d c2 c4 bd 3d 6b db 3c a0 44 38 3e 15 00 67 bd
       -0.09607432 0.026784534 0.17994928 -0.056396563
000190 d8 7a 84 3d f0 96 a8 3d 0e 4f f0 bd 4c 1d 06 be
       0.06468743 0.08231914 -0.117338285 -0.13097113
0001a0 58 3e 87 bc d8 7d 3d be 53 ae 23 3d 40 71 d2 bd
       -0.01650922 -0.18505037 0.03996117 -0.10275507
0001b0 8e f8 69 bd 72 6c 23 bd 41 d8 89 3c d7 1a 65 bd
       -0.057121806 -0.039898343 0.01682675 -0.0559338
0001c0 ac c9 cf bb 05 50 00 bb 1d 32 ba 3d 4d 63 2e 3e
       -0.00634118 -0.0019578945 0.090915896 0.17030068
0001d0 bd 30 55 3e 03 bd ce 3d 43 a1 1b be 83 66 90 3d
       0.20819373 0.10094645 -0.15198235 0.070508026
0001e0 05 fa e5 3d 87 77 46 be fc b6 eb bd 68 db c1 bd
       0.11229328 -0.19381534 -0.11509511 -0.094656765
0001f0 0e f8 cb 3d e9 1e 27 3e eb 3c af bd 89 b6 5e bc
       0.09959422 0.16320385 -0.08556541 -0.013593324
000200 a4 28 04 3e 3b ff 04 3e 7c 39 ed 3c 14 dc 7e bd
       0.12906128 0.12987988 0.028958075 -0.0622216
000210 67 1a 45 bd dc 94 38 3e 0f 0b 54 3d 83 9d b8 bc
       -0.048120882 0.18025535 0.05176836 -0.022536045
000220 8d 53 42 3e 0a be af bd a2 ea 92 3d 28 37 d7 3d
       0.18977185 -0.08581169 0.07173659 0.10508567
000230 f6 86 26 3e 3d 6e 33 3e c8 28 2a 3e 95 b3 5b 3e
       0.16262421 0.17522521 0.1661712 0.21455224
000240 fe 2b 77 3d f0 c1 0b 3d fc 30 86 3d 00 1b 1b 3d
       0.06034469 0.0341205 0.06552312 0.037867546
000250 15 29 55 bd 19 c6 03 bd 4a 54 e9 3d 4a 66 bb bd
       -0.052041132 -0.032171343 0.1139303 -0.091503695
000260 5c f7 a0 3d 5f 53 b5 bd 96 ef 8b bb 7c 22 23 3e
       0.0785968 -0.088537924 -0.004270504 0.15931123
000270 7f 46 1a be 61 a8 a5 bd 64 59 07 be e8 46 21 be
       -0.15065955 -0.08088756 -0.13217694 -0.15749705
000280 96 2a 2f bd 89 83 47 3d e6 73 d9 3d 97 4a ef 3c
       -0.042765222 0.048709426 0.10617809 0.029210372
000290 ff 17 a1 3d 70 73 00 bc 6f 35 ad 3c bc a8 49 3b
       0.07865905 -0.007840022 0.021143643 0.003077074
0002a0 2b e0 41 bd d8 a0 61 bd ec f1 31 bc 66 1c 12 be
       -0.047332924 -0.055085033 -0.010860901 -0.14268646
0002b0 01 2f c2 bc 07 9a 8a 3d 12 38 cb bd 5f 8a 1b be
       -0.023704054 0.0676766 -0.09922804 -0.15189503
0002c0 c8 69 ed 3c 4b 56 9e 3c a6 a9 87 bd a2 a9 8e bd
       0.028981104 0.019328257 -0.06624155 -0.06965949
0002d0 d6 73 cd 3c d9 b9 f6 bd a3 05 87 3d 9a 38 4e 3e
       0.025079649 -0.120471664 0.06592872 0.2013878
0002e0 06 94 47 3e 48 1e 91 3d b9 85 0c 3d 2b 77 a1 bd
       0.1949006 0.07085854 0.034307215 -0.078840576
0002f0 36 6a 99 3d c4 ff 0f be 45 af fa bd f2 46 30 be
       0.07490961 -0.1406241 -0.12240461 -0.17214563
000300 64 7d 0a 3e d0 4b f9 3d fe c2 32 bd 7f 15 2f bd
       0.13524395 0.12172663 -0.04364299 -0.04274511
000310 86 f1 8d 3d 07 dc ae 3c d6 bb a6 3c d1 37 6a bd
       0.069308326 0.021345152 0.020353239 -0.057182137
000320 41 2f 5d 3c 74 55 b1 bd ec 6e b0 bd 79 a0 4e 3d
       0.013500036 -0.08658877 -0.08614907 0.050446007
000330 51 f4 0d be 9f 6c c5 3d 2a 3b c3 bd 6b 26 25 be
       -0.1386273 0.096398585 -0.09532769 -0.16127937
000340 f8 59 02 bd 7e af 08 3e b4 0c 00 3d 30 85 ac bd
       -0.031824082 0.13348195 0.031262115 -0.08423841
000350 fe 1e 8f bd a9 a1 8c bd e4 ec 95 3d 40 11 0b 3e
       -0.06988333 -0.06866772 0.07320574 0.13580799
000360 b3 92 90 3d f7 dd 12 be f7 8f f3 3d cd 9f 20 3e
       0.07059231 -0.14342485 0.118926935 0.15685959
000370 97 85 dd bc 21 d2 79 bc dc f7 ae bd 24 86 b5 3c
       -0.02704124 -0.015247853 -0.08543369 0.02215869
000380 8b be 09 3e d3 e5 1a 3e be ad 0b bd 6e e0 10 be
       0.13451593 0.15126733 -0.03410124 -0.14148113
000390 97 3a d9 3d a7 bf 55 3c 00 f8 e1 3d 04 7d d0 3d
       0.10606878 0.013046182 0.1103363 0.10180095
0003a0 6a 09 b9 bc a8 27 ab 3c cb 82 26 3e d3 09 e0 bd
       -0.022587497 0.020892933 0.16260831 -0.10939374
0003b0 6f 4d c4 bd fc 4c 1f 3e 8a 12 0a bd d7 49 50 3d
       -0.09585082 0.15556711 -0.033709086 0.05085167
0003c0 8e a7 86 3c 61 5c d8 bc 7b a0 86 bd 5d 77 8f bd
       0.016437318 -0.026411237 -0.06573578 -0.070051886
0003d0 28 f6 5b bc 12 b4 5c bd eb f3 1c be f6 fb 96 3d
       -0.013425387 -0.053882666 -0.15327422 0.073722765
0003e0 ef 84 eb 3d 8d fb e3 3d 40 e8 11 3e 3a fe a1 bc
       0.114999644 0.11131964 0.14248753 -0.019774545
0003f0 4a 40 e9 bc ef 8a 96 3d 8e d9 1f be c3 f6 18 bd
       -0.028473038 0.07350718 -0.15610334 -0.037344705
