augment_model.pth (torch, 474090 bytes, 20 tensors)

encoder.0.weight f4 [256, 45]
000000 63 f2 97 bd 42 d0 1e 3d 47 26 b2 bc 82 c1 10 be
       -0.074192785 0.03877283 -0.021746768 -0.14136317
000010 96 ae 7d 3d e1 6a 57 3c b8 da 03 bc 6d 6a 62 3d
       0.061934076 0.0131480405 -0.008047752 0.055277277
000020 d3 9e 0b be 87 49 c9 3d da 69 49 3d a4 ca 37 3d
       -0.13634805 0.09828477 0.049173214 0.044870988
000030 4d e8 09 be 79 d7 a5 3d 16 68 5a 3d 64 1e dd 3a
       -0.13467522 0.08097739 0.05332192 0.0016870019
000040 7e 1c 0c 3e a0 92 1e be ed 5b 9e bd 68 ee 80 bd
       0.13682744 -0.1548562 -0.07732377 -0.062954724
000050 3e 8e 61 bd 2b 5c f2 bd 9a 78 bc bc fe 02 02 3e
       -0.055067293 -0.11833986 -0.023006726 0.12696454
000060 82 bd 95 3d 45 61 ec 3d 06 0a 17 be db 73 88 bd
       0.07311536 0.1154199 -0.14749917 -0.06662723
000070 8d d5 bd 3d 62 52 32 3d 32 37 9a 3d e7 2d ab 3d
       0.09269247 0.043535598 0.07530059 0.083583646
000080 f9 dc 86 bd c1 c4 8a 3b b6 78 1d be e3 8a 0b be
       -0.06585116 0.0042348807 -0.15378079 -0.136272
000090 8d b3 83 3d 22 2b d4 3d 8b e4 fb 3d e6 05 41 bc
       0.06430731 0.103597894 0.122994505 -0.011781191
0000a0 8a c0 be bd a7 ea 74 bd 5a f8 01 bb c9 7b 44 bd
       -0.09314068 -0.059794094 -0.0019831867 -0.047969613
0000b0 16 c7 bc bd 4f 54 f2 3d c9 c2 ff 3c dc ca 95 bd
       -0.0921766 0.11832487 0.03122081 -0.07314083
0000c0 19 f3 84 bd a7 0f f5 bc e9 b9 e0 bd e0 e2 fb 3c
       -0.0649168 -0.02991469 -0.109729595 0.03074783
0000d0 80 b9 bd 3c 17 9e b7 bd 16 3b cc bd f5 89 ae 3d
       0.023159742 -0.089657 -0.09972207 0.08522407
0000e0 fa 22 d7 3d ff 2d 98 3d 21 3e 81 bd 56 9b e7 bd
       0.10504718 0.07430648 -0.06310678 -0.11308925
0000f0 ab 6d fa 3b a3 cf 18 3d 9d 16 c0 bd b2 98 74 bd
       0.007642468 0.037307393 -0.09379313 -0.059715934
000100 65 1d 19 3e 36 ca e2 3d 1f 45 eb 3d 55 91 fa bd
       0.1495262 0.11073725 0.11487793 -0.12234751
000110 27 0c f4 3d 0c d3 07 3e 41 c9 99 3d 38 45 f3 3d
       0.119163804 0.13264102 0.07509089 0.11878437
000120 fa da 41 3c 63 1d 46 bd b6 4a e7 bd 75 7b 0d be
       0.011831993 -0.04836787 -0.11293547 -0.13816626
000130 c1 53 f7 bd bb be ff 3d 99 0b 74 3d 7b f7 e2 3c
       -0.12076522 0.12487551 0.059581373 0.027705899
000140 89 1b d4 bd 06 12 5d 3d bb c5 b1 3d db d7 d3 bd
       -0.103568144 0.053972267 0.08680292 -0.103439055
000150 ca 1b 58 3d c8 9c 0a be b7 ba 10 bd a6 ba 6d bd
       0.052760877 -0.1353637 -0.035334315 -0.05803933
000160 66 23 da 3d 40 04 02 be 70 9f 7c 3d 18 ea ee bd
       0.10651283 -0.12696934 0.06167549 -0.116657436
000170 0f 2f cd bd f3 f0 ec bd 7e 5f 7d bd 75 7e 1d bd
       -0.10018741 -0.11569395 -0.061858647 -0.038450677
000180 34 93 c5 3d 20 c0 39 3d 03 62 1a be 42 8f dc bd
       0.096472174 0.04534924 -0.15076451 -0.10769512
000190 31 ba da bd 38 09 5b 3d 8b d5 d1 3d 8a 18 89 3c
       -0.106800444 0.05347559 0.10245808 0.016735334
0001a0 68 7a 2b 3d cd 9c 12 3d d3 8a 94 bc a9 22 13 be
       0.041864783 0.035794068 -0.018132603 -0.1436869
0001b0 fa 27 b8 bc ad 16 8c bc 1c 0b a7 bd 54 81 19 3b
       -0.02248 -0.017100656 -0.08156416 0.0023423033
0001c0 fa 86 79 bd 15 76 1b bc 9d 69 8b 3b 7b 2f b7 3d
       -0.06091974 -0.009488602 0.0042545334 0.08944603
0001d0 b8 15 fd 3d d4 7b e1 bd 03 b1 aa 3d 49 ca e7 3d
       0.12357658 -0.110099465 0.083345436 0.1131788
0001e0 0c 85 f6 3d ef 78 85 bc d5 1b d3 bd 90 2e 77 bd
       0.120370954 -0.016293017 -0.10308043 -0.06034714
0001f0 9b 88 53 3d b9 4f 9e 3c 2b 5e d6 3d 54 08 c5 3d
       0.05164395 0.019325124 0.1046718 0.09620729
000200 01 6d 85 bd 25 e3 f1 3d 1e 2a 54 3d 2b bd ab bd
       -0.065149315 0.118109025 0.05179798 -0.0838569
000210 a6 5e 25 bd fc 6c b2 3d c4 f5 b4 bc 18 47 6f bd
       -0.040373467 0.08712193 -0.022089846 -0.05841741
000220 23 e1 8b 3d 4d 8c 98 bd 83 d7 07 3c c4 fa c4 bc
       0.06830051 -0.07448635 0.008291128 -0.024045356
000230 03 6e b9 bd 6c 0f d5 3d b4 5f a7 bb 18 e9 cc bd
       -0.09054186 0.10403332 -0.0051078442 -0.100053966
000240 a3 a0 5e 3d f0 12 32 bd 00 e1 80 3d 94 31 7a bc
       0.054352414 -0.04347509 0.06292915 -0.015270609
000250 01 80 f8 bc bc 64 60 bd 93 5b d7 3c f0 68 7c bc
       -0.030334475 -0.054783568 0.026288783 -0.015405878
000260 71 d8 f3 3d 2c 06 d9 bd c9 64 dd bd c3 1c 32 bd
       0.11906517 -0.1059688 -0.10810239 -0.04348446
000270 25 6d 3a bd a4 f0 a1 3c 5f 09 51 bd c1 55 bb 3b
       -0.045514245 0.019768067 -0.051034328 0.00571701
000280 2d ba cb bd 22 cd ef bd c8 9e ce bd 8d c2 94 bc
       -0.099476196 -0.11709048 -0.10088879 -0.018159175
000290 75 73 d7 bd 10 dd b1 3d 55 37 f4 bd ad fd e8 3d
       -0.105200686 0.086847425 -0.11924616 0.1137651
0002a0 57 38 d3 bc 1b 08 be 3d f4 fe dc bc ea dd 84 3d
       -0.0257837 0.0927889 -0.02697704 0.06487639
0002b0 93 5d 01 3e 11 1f 0b 3e 77 08 d4 3d d9 33 30 bb
       0.12633352 0.1358607 0.10353177 -0.0026886372
0002c0 6b b8 08 be cd 48 84 3d 2f ef 51 3c 75 71 a5 3d
       -0.133516 0.06459198 0.0128133735 0.08078281
0002d0 91 a0 ff bd e2 d0 8f bd 0a 64 c1 bd 26 c8 02 be
       -0.124817975 -0.07022263 -0.09442909 -0.12771663
0002e0 32 02 03 bd e8 bb d0 3d 24 5a 32 3d f6 6f d2 3d
       -0.031984515 0.1019209 0.043542996 0.10275261
0002f0 b2 23 16 3d 63 d2 54 3d 24 89 06 3e 93 eb d8 3d
       0.036655135 0.051958453 0.13138252 0.10591807
000300 44 cf b1 3d 40 c5 91 bd 78 53 81 3d c1 14 84 3d
       0.08682111 -0.071177006 0.063147485 0.06449271
000310 68 10 81 3d 9b 82 0a be 28 e1 13 3d 7c 4c 03 3d
       0.06301957 -0.13526385 0.036103398 0.032055363
000320 d2 7e 48 3d 8e 02 b4 3d 4b e2 16 be 8f f0 c6 bd
       0.04894907 0.0878955 -0.14734761 -0.09713852
000330 26 37 82 bd a2 d7 79 3b 2c 24 d0 3d d6 ab d0 3b
       -0.06358175 0.0038122912 0.10163149 0.0063681407
000340 ea 11 01 3e 5b c2 4e 3d 9b 50 66 bd 9e 04 6c bc
       0.1260449 0.05047832 -0.056229215 -0.014405398
000350 77 e1 fe 3d 71 a5 a3 bd b4 8c 24 bd 4d 87 b9 3d
       0.12445348 -0.0799054 -0.040173247 0.0905901
000360 3d 94 c2 3d d2 b2 68 bd ed c5 25 bd ed 6a 16 be
       0.095009305 -0.05681116 -0.04047196 -0.14689226
000370 34 66 02 be cf 17 a8 3c 16 70 91 bd 8c 4a 87 3c
       -0.127343 0.020519165 -0.07101457 0.016515039
000380 df 9a 63 3d 62 7b 12 bd 65 8e 0c 3d 31 fd 97 bd
       0.05556762 -0.0357622 0.034315486 -0.07421339
000390 e0 ca 24 3b df 28 c1 3d 7c 1a c9 3d 92 5d 64 3d
       0.0025145337 0.09431624 0.098195046 0.055753298
0003a0 28 77 a1 bc 26 8f 1d be 9c 28 aa bd b9 97 02 be
       -0.019710138 -0.15386638 -0.08308527 -0.1275319
0003b0 e7 52 03 3e 3c c7 e8 3d 09 dc 43 bd 32 72 af 3d
       0.12824593 0.11366126 -0.047817264 0.08566703
0003c0 b3 0f bf bd 78 67 fc bd c7 41 1a bd 67 d6 97 3b
       -0.09329166 -0.123244226 -0.037660386 0.004633713
0003d0 6a 45 62 bc 39 d1 5f bd 31 fa 59 bd f2 60 b2 3d
       -0.013810495 -0.05464289 -0.053217117 0.08709897
0003e0 e9 ea 72 3d 58 3f 4e 3d bf 36 79 bd 51 da 0d bd
       0.05930606 0.050353378 -0.060843226 -0.03463203
0003f0 34 87 ff 3c 2c 35 b9 3d b3 5d c4 3d 85 1c 91 3d
       0.0311924 0.09043345 0.09588184 0.07085518

encoder.0.bias f4 [256]
000000 5c d7 fe 3d eb b9 5b 3b 1e b6 51 3c 11 dc ea 3d
       0.1244342 0.0033527564 0.012799768 0.114677556
000010 8d 53 9d 3c ac d0 a2 bd 39 f8 a7 bc af 0d 97 3d
       0.01920488 -0.07949957 -0.020504104 0.07375657
000020 53 c5 81 3d 39 cb 39 3d ba 15 7c 3c 8b 49 a5 bd
       0.06336465 0.045359824 0.015386039 -0.08070668
000030 ae e1 19 be bc 44 09 3e 1a 3d 0b 3e 06 c0 b4 bd
       -0.15027496 0.13405126 0.13597527 -0.08825688
000040 5a 4b 8b bc ac 67 12 3e 22 4e 1a be ca 24 7e bd
       -0.017003704 0.1429736 -0.15068868 -0.062046804
000050 d4 01 9f bd 15 eb bf 3c 30 f6 50 3d c1 26 b3 3d
       -0.077640206 0.023427526 0.051016033 0.08747626
000060 44 75 93 bd 62 c4 84 bd 9a 15 9c bc 8e a5 19 3d
       -0.07200101 -0.064827695 -0.01905327 0.0375114
000070 ef 32 a9 bd 5f 26 0c be 25 a0 0b bc 91 d4 79 3d
       -0.08261668 -0.13686512 -0.008522068 0.060993735
000080 30 a0 c9 bb 29 56 5c bc 8d 50 d9 39 11 a2 17 be
       -0.006153129 -0.013448277 0.0004144948 -0.14807917
000090 0c cb 6c 3d 07 12 de 3d b7 ef b3 bd 81 71 06 3d
       0.057810828 0.10843282 -0.08785956 0.03282309
0000a0 be e5 ce 3d 37 47 e9 3d 4e 40 09 bd 01 69 ab bd
       0.101024136 0.11390536 -0.03350859 -0.08369637
0000b0 eb 5c 44 3d 55 17 fa 3c 7c ee 6d bd cf 3f e8 bd
       0.047940176 0.030528704 -0.058088765 -0.113402955
0000c0 1b 3e a2 bd 13 d4 87 bd 2c 82 df bd 4d 0f db 3c
       -0.07922002 -0.06632247 -0.109135 0.026740694
0000d0 24 5d 47 3d bc f1 f2 3d fd e1 a7 3b 34 f5 a3 bd
       0.04867281 0.118625134 0.0051233754 -0.08005753
0000e0 8c 3c 54 bd c4 65 c7 3d 0f aa a3 3d 51 5a 27 be
       -0.051815554 0.09736207 0.079914205 -0.16343047
0000f0 64 14 8c bd eb c7 9c 3d 8b 23 c8 3d bb 39 d1 3d
       -0.06839827 0.07655319 0.09772404 0.10216089
000100 52 25 f5 3d 9c 59 8a bd 71 70 a9 3d 19 8f 3b bd
       0.11970009 -0.06755373 0.082733996 -0.045790765
000110 06 4e 85 3d a2 a6 d9 bd 3d e4 f5 3d 09 00 1d bd
       0.065090224 -0.10627486 0.120064236 -0.03833011
000120 26 fa 82 3d 87 f1 56 bc 42 ae ce bd 8b ee 0f bd
       0.06395368 -0.013119108 -0.10091831 -0.0351396
000130 51 5e 92 bd ce 30 f6 3d 1c 44 89 3d 99 70 ed bb
       -0.07146896 0.120210275 0.06702444 -0.0072460887
000140 1e 6a bf 3d 6e e0 3f bd 92 7e 34 3d 90 73 c3 bc
       0.09346412 -0.046844892 0.04406602 -0.023858815
000150 98 78 f2 3c 92 1d b4 bc 59 42 09 bd b5 bd 7f 3c
       0.02959852 -0.021986756 -0.03351054 0.0156091945
000160 8e cb d8 bd 8f 39 93 bd 39 6b 31 bd e3 13 ed 3d
       -0.105857 -0.07188713 -0.043315146 0.11576059
000170 56 21 ec 3d 23 41 97 bb 37 83 00 be 2a cc 8a bc
       0.11529796 -0.004615919 -0.12550054 -0.016943056
000180 cc 35 0e bd 2e 7f 19 be f4 b9 d4 bc 79 2b 05 be
       -0.034719273 -0.14989921 -0.025967576 -0.13004865
000190 84 9e 08 bb a8 c4 01 be 2b 7a ff bc 47 88 99 bd
       -0.0020846436 -0.12672675 -0.031186184 -0.07496696
0001a0 f2 f8 ee 3d 37 3f b9 3b 96 96 12 bd 4e 1f bd bc
       0.11668576 0.0056532877 -0.03578814 -0.023086216
0001b0 9c 1d 6d bc 44 14 99 3d fb 15 02 bd 8e 94 82 3c
       -0.014472391 0.074745685 -0.031759243 0.015939977
0001c0 9a 6e 8d 3c cc 9c 0b be c3 ab a9 bd 0f 4b 11 be
       0.017264653 -0.13634032 -0.08284714 -0.14188789
0001d0 de be 4c 3d 59 03 67 3d 14 1b 0a 3e 43 ee dd bd
       0.049986713 0.056399677 0.13486892 -0.108364604
0001e0 70 88 41 3d 2b 81 c6 3d c9 60 b8 bd b0 0f 84 3d
       0.047249258 0.096926056 -0.09002835 0.06448305
0001f0 f3 79 be 3c b3 b7 c7 bd 34 4b 04 3d 76 e7 da bd
       0.02325151 -0.09751835 0.03229828 -0.10688679
000200 45 0f 2a 3d a4 04 e1 3d fe bf 09 be 78 8f 18 be
       0.04151847 0.10987213 -0.13452145 -0.14898479
000210 c6 81 b8 bd 5a db 00 be 8b 49 b4 3b 8b 13 c8 3d
       -0.09009127 -0.12583676 0.005501931 0.097693525
000220 24 e2 aa bc f7 b9 cf 3d 23 63 fd bd 21 f3 af 3d
       -0.020859785 0.10142892 -0.123724245 0.08591295
000230 09 98 a6 bd 7d a9 01 be de 4c c4 3d c2 3b 0d 3b
       -0.08134467 -0.12662311 0.09584974 0.002155051
000240 c5 f5 48 3d f0 26 2e bc 31 b9 44 bc 57 bc ca bd
       0.04906251 -0.010629401 -0.012007044 -0.09899204
000250 d4 d2 a9 bd 0f e1 0d 3b 4f 30 07 3e 5a 94 b9 3d
       -0.082921654 0.0021649038 0.13202022 0.09061499
000260 1a 75 e4 bd 0b f4 c9 bd fc 1b b0 bd 1c bf 02 3e
       -0.11155148 -0.098610006 -0.085990876 0.12768215
000270 3d 9f 85 bd 6c b1 12 3e b7 d0 fc bc 49 92 d9 3c
       -0.06524513 0.14325494 -0.030861242 0.026559012
000280 3a ca a6 bd 6b 30 8c 3d d1 3e 39 bd 0c 5c c3 bd
       -0.081440404 0.068451725 -0.045225922 -0.09539041
000290 87 16 aa 3d 08 49 d9 bc e1 df 01 3e 5b 96 1c 3e
       0.08305078 -0.026524082 0.1268306 0.15291731
0002a0 cd 22 10 be 60 2c b4 3d fd b2 6b 3d a9 da 85 bd
       -0.14075775 0.08797526 0.057543743 -0.06535847
0002b0 7c 51 35 bd 84 81 64 3c 3e 0a a5 bd 14 dc 8c 3b
       -0.044267163 0.013946895 -0.08058594 0.0042986963
0002c0 be 35 e9 3d fc 05 93 bd ed 55 c3 3c d1 ef f4 bd
       0.11387204 -0.07178876 0.023844684 -0.11959804
0002d0 07 31 83 3d b2 d1 11 3d 02 45 ef 3d 63 94 e2 bd
       0.064058356 0.03560037 0.11683084 -0.11063459
0002e0 ba c2 8b bd 4c 1a 94 3d 06 c1 fa bc e9 52 f8 3d
       -0.068242505 0.07231578 -0.030609619 0.12125189
0002f0 4e 52 9d 3c 47 c6 85 bc c6 17 83 3d 4f f5 04 be
       0.019204285 -0.016329898 0.06401019 -0.12984203
000300 4e b2 25 3e 86 ef 51 bc 4d 2e 48 3d ad 6d 03 be
       0.16181299 -0.0128134545 0.04887228 -0.12834807
000310 03 d6 ad bd d4 1b 53 3d f7 1c f0 bd 1b e9 ec bd
       -0.08488085 0.05154021 -0.117242746 -0.11567899
000320 a9 fd 66 ba 05 0c 0d 3e 1e 22 4b bd 1e 81 bd 3c
       -0.0008811602 0.13774116 -0.049593084 0.023132857
000330 08 53 05 3e c9 62 cc 3d 5c f3 c0 3d 08 4b 7c 3d
       0.13019955 0.09979779 0.09421417 0.061594993
000340 4a 6c 67 3d d8 64 4f 3d ec db fe 3c ba 5a 24 bd
       0.056499757 0.05063328 0.031110726 -0.040125586
000350 ba ac c9 3c fd 51 b6 3d 6c 27 80 3d 92 f5 03 3e
       0.024618495 0.08902357 0.06257519 0.12886646
000360 d3 7b d5 3d 3c a1 a6 3d 03 3f 6f bc c8 84 c3 bd
       0.10424008 0.08136222 -0.0146024255 -0.095468104
000370 3e d2 92 3d 56 f7 ae 3b 79 ac 76 bd 34 a0 1b be
       0.07169007 0.0053395433 -0.060223076 -0.15197831
000380 fe 45 fd bd 99 eb 0b 3d 55 ad 6e bd 76 7f 7c 3c
       -0.123668656 0.03416023 -0.05827077 0.015411248
000390 8f b7 df bd fa 98 af bd 50 4a e9 bd 5f 5b 64 bd
       -0.10923683 -0.085741 -0.11391127 -0.0557512
0003a0 b9 1d 6c 3c d5 50 d8 3d 76 88 cf bd 60 e8 d8 bd
       0.014411383 0.105622925 -0.1013345 -0.10591197
0003b0 20 2d 84 3d 68 12 1d be e8 12 ae bd 08 6c 9b 3b
       0.064539194 -0.15339053 -0.084997 0.004743103
0003c0 5a 8d c0 3d b5 4f 09 3e 75 ec 86 bd 2b ae c4 3d
       0.09401961 0.13409312 -0.06588069 0.096035324
0003d0 55 60 db bd 96 4e eb bd 05 3b e9 bc fc 79 01 3e
       -0.10711733 -0.114895985 -0.028470526 0.1264419
0003e0 f8 bd 6b 3d 4a 2d a1 3c 93 e9 1d 3d 9d 5c c0 3d
       0.057554215 0.019674916 0.03855283 0.093926646
0003f0 11 41 eb 3d 30 26 2b bc 9c 51 0e bd a8 8e 7a 3c
       0.1148702 -0.010446116 -0.034745798 0.015292801

encoder.1.weight f4 [128, 256]
000000 89 e4 e9 3c a4 d7 a7 bb 63 6c 06 3d 9c f7 0a bd
       0.028551357 -0.005122142 0.03281821 -0.033927545
000010 2c a3 76 3d cd 76 4e bc 3f 63 73 3c cc 01 a0 bc
       0.060214207 -0.0126015665 0.014855205 -0.019532107
000020 62 2b 57 bb 84 cd 26 3c 29 50 d8 bc 09 19 fa 3c
       -0.0032832255 0.010180835 -0.02640541 0.030529516
000030 ae cc 8b 3c 2c 05 62 bd fa 16 c4 bc 30 ed 00 bc
       0.017065372 -0.055180714 -0.023936737 -0.00786905
000040 35 c3 0a 3d 8f 12 22 3d 9f b2 28 bd a6 d9 d3 bb
       0.03387757 0.03956848 -0.04118597 -0.0064651547
000050 f1 1c 9c 3c f7 c1 54 bd e9 9a 30 bc e7 58 b2 ba
       0.01905677 -0.05194279 -0.010779121 -0.0013606817
000060 32 8e f7 bc 78 e1 91 bb 3a ca 0a 3d 84 ca 2f bd
       -0.030219171 -0.004451927 0.033884265 -0.042917743
000070 8a 70 77 3c 67 91 77 bc 80 68 66 b6 50 3f 42 bc
       0.015102515 -0.01511035 -3.4333498e-06 -0.011855915
000080 f6 c3 48 3d bd 94 f9 3c e5 e4 39 bc c3 17 5d bd
       0.049015008 0.030466432 -0.011346077 -0.05397774
000090 69 66 cf 3c b6 c3 85 3c 81 06 5d bd f7 b5 9d b9
       0.025317388 0.016328674 -0.05396128 -0.00030080948
0000a0 7e ec f4 b9 4a 07 0a bd 4e f0 17 bc 17 f0 f4 3c
       -0.00046715507 -0.033698358 -0.009273602 0.02989964
0000b0 dd 71 03 3d 4c 90 10 bd da e9 3d 3b e2 46 2e 3a
       0.03209101 -0.035293862 0.0028978498 0.00066481356
0000c0 b7 0e f4 3c a0 24 53 bd 2d 99 8f 3a e7 c3 07 3b
       0.029792173 -0.0515486 0.0010955684 0.0020716132
0000d0 ba 47 72 bc a0 d9 c8 bb 4b a5 7f bc 70 1e 41 bd
       -0.014787609 -0.0061294585 -0.015603374 -0.047148168
0000e0 d5 64 a8 3b 60 11 88 3d 14 4b 34 3d 50 88 2d 3d
       0.0051389732 0.06643939 0.044016913 0.042366326
0000f0 ea c6 44 bd dd 9b 39 3d f5 47 70 3c e0 a5 0f 3d
       -0.04804126 0.04531466 0.014665593 0.0350703
000100 43 78 2c bd c8 4d 51 bd 6a 72 fb bb d7 cd 83 3d
       -0.042106878 -0.05109957 -0.0076735513 0.06435745
000110 c1 e1 03 3c 3e 20 3e bd 52 67 a4 bc bd b0 20 3d
       0.008049429 -0.046417467 -0.020068798 0.03923105
000120 a7 7b 64 3d 54 28 16 bd 5e e3 a0 3b 4b 1f 23 3d
       0.055781987 -0.036659554 0.004909917 0.039824765
000130 55 41 3a 3d 41 f2 a0 3c 2b 46 0e bb ac d7 53 3d
       0.04547246 0.019646766 -0.0021709304 0.051719353
000140 ef 70 c6 bc 0f d3 74 3d d1 17 04 3d 56 58 22 3d
       -0.024223773 0.059771594 0.032249276 0.039635025
000150 51 05 4e 3d 54 7d f0 39 37 30 12 3d d2 69 05 bd
       0.05029804 0.00045869744 0.035690513 -0.03257162
000160 36 b1 46 3a 94 e0 10 bd 9d 85 77 bd 75 3a a7 bc
       0.0007579507 -0.035370424 -0.060430158 -0.020413617
000170 87 eb ba 3c b6 6f 3c 3d 97 67 47 bd 29 1c 58 3d
       0.022817386 0.046004973 -0.048682775 0.05276123
000180 0f 02 bd 3c 77 44 85 3d 3d e2 3e 3d cb e8 16 3c
       0.02307227 0.06507199 0.046602476 0.009210776
000190 e9 ce 2c 3d 80 ee 44 bc 72 67 6c bd ae e2 0f 3d
       0.042189512 -0.012019753 -0.05771584 0.035128288
0001a0 0a 2a 4b bd 10 b6 7f bd 9f 9c 4c 3c e8 7a a8 bc
       -0.04960064 -0.062429488 0.012488513 -0.020566419
0001b0 49 66 13 3d fa 88 22 bd 08 cc 3d bd ad 43 9a 3c
       0.03598622 -0.039681412 -0.046337157 0.018831098
0001c0 96 06 24 bc 39 48 87 bd 8d 24 67 bd 00 05 59 bc
       -0.010011336 -0.06605572 -0.056431342 -0.013245821
0001d0 e3 46 80 bd 93 e3 69 bc 53 44 22 bc 72 be 1c bc
       -0.062635206 -0.014275449 -0.009903985 -0.00956689
0001e0 7d 94 73 bc 50 c3 99 bc de c3 bb 3c 25 d3 0a 3c
       -0.014866945 -0.01876989 0.022920545 0.008473192
0001f0 a0 b2 36 bd 1f fa 85 bd 29 4f 19 bd c9 da 21 bd
       -0.044603944 -0.065418474 -0.03742901 -0.03951529
000200 5b 50 47 3d 69 59 3d bd 76 04 f7 3c 9c cd 04 3d
       0.048660617 -0.046227846 0.030153494 0.032422647
000210 82 1b a8 3c 28 83 80 bc 53 2f 18 bd 55 78 e7 ba
       0.02052093 -0.01568754 -0.037154507 -0.0017659763
000220 ff b8 d7 3b a6 c0 12 3d e0 3c 3c 3d 05 ff f6 3c
       0.0065833325 0.035828255 0.045956492 0.0301509
000230 cc cc 1b 3d 6b cb 44 bc ba 67 a4 3c 53 45 17 3d
       0.038037106 -0.012011389 0.020068992 0.036931347
000240 db 3a 08 3d 85 27 ab bc d2 c1 d4 3b 2b 21 24 3c
       0.033259254 -0.020892868 0.0064928317 0.0100176735
000250 b2 3a 5a 3d 0d 3a e8 bc 66 fc 86 bb 09 ec 38 bd
       0.053278632 -0.028347993 -0.0041194437 -0.045146976
000260 9d 36 cb 3c d2 d4 c1 bc ef 96 ba bb fd 15 b2 bc
       0.024806315 -0.023661051 -0.005694262 -0.021739
000270 97 69 43 3d 78 70 9e 3c e0 d8 d7 bc e6 0e 38 bd
       0.04770812 0.019340739 -0.026348531 -0.044936083
000280 a5 75 b7 bc d7 19 97 bc cc 5c 23 3d ac 61 7b 3d
       -0.022394964 -0.018444939 0.03988342 0.061372444
000290 27 a1 20 3d c1 8c 0d 3b 83 81 d6 3c 17 bc ea bb
       0.039216187 0.0021598788 0.026184803 -0.0071635353
0002a0 8b 80 d3 3c 2c a2 02 3d 33 d1 51 bd 20 50 d7 bc
       0.02581813 0.03189294 -0.0512249 -0.026283324
0002b0 ed c0 1f bd fe 19 18 3c 51 dc 95 3c e3 71 8c bc
       -0.039002348 0.009283541 0.018293532 -0.01714415
0002c0 55 6f 3f 3d 83 ba e9 bb 91 cc 54 bc 6b 09 82 3c
       0.046737034 -0.0071328296 -0.012988226 0.015873631
0002d0 f6 66 01 bd e1 eb 53 bd 88 c6 43 3d 52 ab 3f 3d
       -0.03159233 -0.051738624 0.047796756 0.046794243
0002e0 93 ef 1d bd e3 bf 36 bd 7c df a6 bc 1f a4 ca 3c
       -0.038558554 -0.04461659 -0.020370238 0.024736462
0002f0 2e cf 11 3d 84 79 ed 3c 57 9c 19 bd 0d 61 99 3b
       0.035597973 0.028988607 -0.037502613 0.004680759
000300 93 3a 1e bd af ca 1c 3d 82 5b fa bc cb 37 cc 3c
       -0.03863008 0.03827923 -0.030561212 0.024928948
000310 27 ad 8d ba c7 e8 32 bc 48 33 2b bd d5 60 ed 3c
       -0.001080905 -0.010919756 -0.041796952 0.028976837
000320 ea 4c 3c 3d e6 b3 af bb b7 58 00 3d 53 b1 9d 3b
       0.04597179 -0.0053620217 0.031334605 0.0048123985
000330 3d 7e 82 ba 2d fd 42 3c fd 43 36 bd 8b a7 5f bd
       -0.0009955835 0.011901182 -0.044498432 -0.05460314
000340 28 09 a2 3b 03 1a be bc b1 78 39 3d d3 e2 b9 3a
       0.004944939 -0.023205763 0.045281116 0.0014181979
000350 03 26 21 3c e3 90 62 bc 75 d3 f1 bc 7a 08 b9 bc
       0.009835723 -0.013828489 -0.029519776 -0.02258705
000360 35 5b ef 3c 21 5f db bc 03 15 4b bd 23 75 f5 3c
       0.029218296 -0.02677876 -0.049580585 0.029963082
000370 af 92 20 bc 1e 7d 26 3d d3 74 44 3d f0 c2 6c 3d
       -0.009800597 0.040646665 0.047962975 0.057803094
000380 9a 86 b9 bc 09 1e a8 bc 1f b1 c5 3c 8e 5f 13 3d
       -0.02264719 -0.020522134 0.02413231 0.0359798
000390 80 99 fa 3b 40 2e 47 3d b8 e2 0f 3c a3 fd 81 3c
       0.007647693 0.04862809 0.008782081 0.015868014
0003a0 14 28 0d 3d 01 5e 57 3d 2d 57 1c bd fb 16 3e bd
       0.03446205 0.052579883 -0.038169075 -0.046408635
0003b0 62 2c f6 3c e9 4e bb 3c eb de 32 3d b0 95 eb bc
       0.03005046 0.022864776 0.043669622 -0.0287579
0003c0 cd 93 49 3d c8 a2 a5 bc 13 a7 fd 3c cd 1c a8 bc
       0.04921322 -0.020219222 0.030963456 -0.020521546
0003d0 9e c5 b2 3c 7a b8 12 3d 2a 98 b9 b9 82 72 12 bc
       0.021822747 0.03582046 -0.0003539932 -0.008938434
0003e0 b5 b6 d8 bc 84 e2 df 3c 11 a2 8e bd 99 9e 8a b9
       -0.026454309 0.02732969 -0.069645055 -0.00026439576
0003f0 86 63 81 3c 2d 16 2e bb d9 cb 4a bd 9b 3e c3 bc
       0.015794527 -0.002656351 -0.04951081 -0.023833564

encoder.1.bias f4 [128]
000000 67 66 1b bc fe 22 59 3d a4 e0 ed bb d9 d3 68 3d
       -0.009484864 0.053011887 -0.0072594453 0.05684266
000010 d8 9f 73 3d a7 fd 8f 3b 46 d7 0a bb 39 cf 0a bd
       0.05947861 0.0043942514 -0.0021185442 -0.03388903
000020 6d c8 e2 3c 59 dc 09 bd c3 cc 3a bd bb 0c 3c bd
       0.027683461 -0.033657406 -0.045605432 -0.04591058
000030 6b 4c 42 bd 91 16 24 3c a0 7e 42 3b 5b 17 ff 3b
       -0.04743616 0.010015146 0.0029677525 0.0077847666
000040 db 51 8b bc ac 95 4d 3d bd 5c a5 3c 47 61 2b 3d
       -0.017006805 0.050191566 0.020185823 0.041840818
000050 f3 31 05 bd 25 f4 cc bb da 9b 1e bc ca 57 c2 bc
       -0.03251834 -0.0062546902 -0.009680713 -0.023723502
000060 62 d4 3e bd c3 44 0a 3c 86 53 62 3d 4a f2 14 3d
       -0.046589263 0.008439246 0.055255435 0.036363877
000070 52 64 20 3d fb b2 3a bd c0 0c 8b 3c d5 ee 53 bd
       0.039158173 -0.045580845 0.016973853 -0.05174144
000080 34 af 8d bc 37 23 42 3b e3 79 e4 bc e0 92 4e 3d
       -0.017295457 0.002962304 -0.027890151 0.05043304
000090 65 4d 47 bd 07 fc 25 bc 79 9b cd 3c 4f e0 41 bd
       -0.048657794 -0.010130889 0.02509855 -0.047333058
0000a0 ef df 0a bc 4d 3f 23 3d 3b 8b 10 bc 55 03 b7 3c
       -0.0084762415 0.03985529 -0.008822258 0.022340456
0000b0 55 92 5e bd 74 fe d8 3c f2 02 2c bd eb 81 f6 b9
       -0.05433877 0.02648852 -0.041994996 -0.00047017573
0000c0 d9 b8 95 3c 87 07 47 bd 1b 10 cd 3c 4a 0f 28 3d
       0.018276619 -0.048591163 0.025032094 0.041030206
0000d0 dd 76 66 bb 4a 8c c1 3b d7 c5 20 3d 60 be 15 3d
       -0.0035166063 0.0059066163 0.039251175 0.03655851
0000e0 3e 29 57 3d 92 d8 42 3c 9c e6 5d 3c c2 2c 2c 3d
       0.052529566 0.011892455 0.013543751 0.042034872
0000f0 85 29 63 3d 6e c9 d9 3c 1e cc 3f 3b 80 50 5d 3d
       0.055459518 0.026585307 0.002926595 0.05403185
000100 b7 fe a5 ba 63 36 b0 bc e2 8e be bc 81 c2 51 bc
       -0.0012664412 -0.021510309 -0.023261491 -0.012802721
000110 7d 4c 39 bd 5c f6 0c bd 5b 04 da 3c 99 7f 2f bc
       -0.04523896 -0.034414634 0.026613405 -0.010711574
000120 84 81 88 3c 92 0b 37 bb ac 1a 8e 3c 50 04 f9 bc
       0.01666332 -0.002793048 0.017346703 -0.030397564
000130 58 b0 5a bc ab c7 49 bc bf 14 18 bd c0 68 26 3d
       -0.013347708 -0.012315671 -0.03712916 0.04062724
000140 21 2a db bc 4c 26 68 bd 41 50 bb bc 57 b0 00 3d
       -0.026753487 -0.056677148 -0.022865416 0.03141817
000150 29 81 77 3c 78 55 16 bc cc 46 a4 bc 45 bb 95 3c
       0.015106478 -0.009175651 -0.02005329 0.018277774
000160 5f fd 3c bc a0 c5 84 3b 46 67 3a 3d 68 db 2e bd
       -0.011535018 0.004051879 0.045508645 -0.04268971
000170 c9 ae e2 bc 46 4c b2 bb ae 32 58 bd 28 d0 1c 3d
       -0.027671235 -0.0054412214 -0.052782707 0.03828445
000180 5c 23 0d bc 4e 7c 3c bd 58 f4 0e 3c a3 4b a5 bc
       -0.008614387 -0.046016984 0.008725248 -0.020177668
000190 4b ea c2 3c f8 90 d6 bb 76 85 82 3c 28 7d b0 3b
       0.02379336 -0.0065480433 0.01593278 0.0053860135
0001a0 65 bc 61 bd 4a 8e af bc 21 83 15 3d 58 fb 9c bc
       -0.055111308 -0.021430153 0.036502007 -0.019162819
0001b0 55 f6 43 3d 3f 6a 3c bd f8 27 30 3d d7 93 51 3d
       0.047842342 -0.04599976 0.043006867 0.05116638
0001c0 80 e7 40 3c 1c f6 4a bc 66 7d 0b bd 3b 4a 36 bd
       0.011773944 -0.012387779 -0.034055136 -0.044504385
0001d0 b8 61 40 bd cb ab 3f 3d 8b c3 36 bd 3a cf 83 3b
       -0.04696819 0.046794694 -0.044620078 0.004022506
0001e0 f7 ee 60 3d f7 e9 45 3c a5 5d 05 bd f6 5a 1a bc
       0.054915395 0.012079707 -0.03256001 -0.009421101
0001f0 18 04 29 bc d0 c2 38 bd df 72 e7 3c 10 37 50 bc
       -0.010315917 -0.045107663 0.028253017 -0.01270844

encoder.4.weight f4 [64, 128]
000000 ff 4e 81 bd 96 59 76 bd 83 f9 84 bd 09 30 26 bd
       -0.063138954 -0.06014403 -0.06492903 -0.040573154
000010 57 39 5c 3d 27 4d d3 bc bc a9 a6 3b 3f 35 4a bd
       0.05376562 -0.025793625 0.005086152 -0.049367186
000020 4d 5c bf 3d 64 a3 04 3d d9 13 d3 bc 1c 68 31 bd
       0.09343777 0.032382384 -0.0257663 -0.043312177
000030 5b 64 8f bd 73 b8 8d bd 51 eb 4a 3d 54 0e b2 bc
       -0.07001563 -0.069199465 0.04954082 -0.021735348
000040 cd 39 43 bd 26 a3 b5 bc 68 45 4a 3d b8 ef 21 bd
       -0.047662545 -0.022172522 0.049382597 -0.039535254
000050 96 46 97 3d 6f d1 bf 3c c9 96 e3 bc 12 b3 61 bd
       0.0738651 0.023415295 -0.02778186 -0.055102415
000060 c0 56 9a 3c b7 b5 75 3d 32 3a 35 3c c2 d7 81 3d
       0.018840194 0.05998775 0.011061238 0.06339981
000070 31 0d 91 bd 0d b8 87 bd 88 b5 a7 3b ed 30 4a 3d
       -0.07082594 -0.06626902 0.0051180758 0.049363066
000080 04 4a a0 bd 90 e5 2d 3d bc ae 17 3d cf fd 10 3d
       -0.07826617 0.042455256 0.037031874 0.0353983
000090 09 e9 81 3d 76 78 a9 bc a9 9a de 3c 4c b9 b0 bd
       0.06343276 -0.020687323 0.027173357 -0.086290926
0000a0 46 36 a2 bd ac fd 23 bd 5c df 91 bc 79 f2 20 bc
       -0.07920508 -0.040036842 -0.017806701 -0.009823435
0000b0 6a 7f b6 bc 09 5d 93 bd 66 22 76 3d 2c d3 6c bd
       -0.022277553 -0.071954794 0.0600914 -0.057818577
0000c0 fe 08 12 3d f8 6e 14 bd dd 2e 1b 3c 63 88 41 bd
       0.035653107 -0.03623864 0.009471622 -0.04724921
0000d0 76 3d 20 3d 3e e2 08 3d eb 9b 13 bd 65 ee a2 3c
       0.039121114 0.033418886 -0.036037367 0.019889066
0000e0 97 56 0e 3c ee 31 43 3b f5 c6 79 bd 49 91 1e bd
       0.008687637 0.00297844 -0.060980756 -0.038712773
0000f0 22 06 ed 3c 21 56 9c bd e8 b7 32 3c 21 88 65 bd
       0.028933588 -0.07633615 0.0109081045 -0.056038026
000100 39 fe 61 3d d2 59 89 3d d5 bb a4 3c f9 0b 97 bd
       0.055174086 0.06706585 0.020109097 -0.073753305
000110 c4 d0 10 bd 95 51 59 bc 65 2b 2a bd b0 d9 9a 3d
       -0.035355344 -0.01326408 -0.04154529 0.07561052
000120 11 90 75 bd 02 c9 92 bd c8 77 83 bd 78 d7 01 3d
       -0.059951846 -0.071672454 -0.06419331 0.031699628
000130 b7 04 8d bd 43 40 68 bd 3e 96 15 bc 1b 4e aa bd
       -0.06885665 -0.05670191 -0.009130059 -0.08315679
000140 75 8c 1e bd 1b e3 21 3c b9 60 9e bd e6 f0 32 bd
       -0.03870817 0.009880806 -0.07733292 -0.04368677
000150 b0 ec 31 3d 03 3f 54 bd 5c 49 35 3d 0e 63 1f bd
       0.043438613 -0.051817905 0.044259414 -0.038912825
000160 e4 79 88 3b 22 8c 76 bd fc 30 8e 3d 67 51 5e bd
       0.004164921 -0.060192235 0.06942937 -0.05427685
000170 88 bc 02 3b c9 ef 5c 3c 5b d5 30 bd e4 76 7f 3c
       0.00199488 0.013484904 -0.04317222 0.015592311
000180 12 2d 0c 3d 16 b7 49 3d cd c8 bd bb 29 0f 6d 3d
       0.03422267 0.04924687 -0.0057917596 0.057875786
000190 84 5c 19 3c bc 1c 01 bd 86 ce f9 bc 4c 95 32 bd
       0.009360436 -0.031521544 -0.030493986 -0.04359941
0001a0 01 9e 9b bc 0a 7b 35 bd b5 52 50 bd f6 11 02 bd
       -0.01899624 -0.044306792 -0.050860126 -0.03175541
0001b0 97 ad 84 bd 82 39 85 3d 9f 0c 86 3d b6 34 2f 3d
       -0.06478422 0.06505109 0.06545376 0.04277488
0001c0 e7 6b aa 3c c7 21 49 3d ee cc 1e bd 56 0e 1b 3d
       0.020803405 0.04910448 -0.038769655 0.03785547
0001d0 67 7b 29 3d b4 4a a7 bc 5c b1 1f bc 63 2d 11 bc
       0.04137745 -0.020421363 -0.009746876 -0.008860919
0001e0 61 ed 20 bd d6 82 fe 3c 6d d1 5c bd 64 49 42 3d
       -0.039288882 0.031068247 -0.05391066 0.047433272
0001f0 f1 3b c0 bb 68 52 41 3c fa 8b a7 3d 87 bf 99 3d
       -0.0058665206 0.011799432 0.08180995 0.07507234
000200 17 6f 39 bd 23 06 68 3d 0c 5d ac 3c f7 87 cc bc
       -0.04527196 0.056646477 0.021040462 -0.024967177
000210 c8 47 9a bd b6 f1 82 3c d3 03 2b 3c 65 24 a3 bc
       -0.075332224 0.015984397 0.0104379235 -0.019914815
000220 cf bd 1b 3d 67 64 2b 3d 04 b7 68 3d dc 14 bd bb
       0.038022812 0.041843798 0.056815162 -0.005770309
000230 42 14 8d bd 0e 66 43 3d f1 9a 8b 3d ca a1 12 bc
       -0.068886295 0.04770475 0.06816662 -0.008949706
000240 e4 5d a7 bb a3 fe fc 3c 87 09 87 3d 9c ed 48 bd
       -0.005107628 0.030883139 0.06593614 -0.049054727
000250 b3 5c 91 bd 6d 94 a2 bd f7 f0 c5 bb 0c d4 de 3b
       -0.07097759 -0.07938466 -0.006040688 0.0068001803
000260 94 60 23 3c 1e ab 59 3c e9 ad 39 bd 46 bf 0b bd
       0.0099717565 0.013285426 -0.04533187 -0.03411796
000270 26 76 03 bc bd 2a 05 bd f9 8e 0c bd b2 71 9c 3c
       -0.008023774 -0.03251146 -0.034316037 0.019097183
000280 ad f2 46 3d e5 99 6c 3d 93 88 0e 3d 67 79 4e bd
       0.048571277 0.057763953 0.034798216 -0.050408747
000290 32 43 8d bd 1e 45 5b bc 89 b0 39 bd 0e bd 8d ba
       -0.06897582 -0.013383178 -0.045334373 -0.0010813789
0002a0 f1 a9 eb 3c 32 5c d6 bc 88 e1 41 3c 26 27 99 3d
       0.028767558 -0.026167009 0.011833556 0.0747817
0002b0 42 b6 d7 bc 78 f8 a1 bb 3e c7 a9 bc bf 3c b7 bd
       -0.026332024 -0.00494295 -0.020724889 -0.08947133
0002c0 b1 da 28 bd 4c 63 82 3d 27 85 f3 bb 70 28 09 bd
       -0.041224185 0.063665956 -0.0074316445 -0.03348583
0002d0 87 f2 66 bd ac 54 c7 3c 3e 0c 18 3c c8 86 5d bd
       -0.056383636 0.024332367 0.0092802625 -0.054083616
0002e0 d5 4b eb bc 76 d5 37 bd c4 a9 3d 3d c9 f2 fe 3a
       -0.028722683 -0.044881307 0.04630448 0.0019451018
0002f0 2a 44 1c bd 92 4f 0a bc 88 7d 90 bc 8e 22 1e bd
       -0.038150944 -0.008441823 -0.017637983 -0.038607173
000300 8a 35 96 bc 47 26 4d bd 50 6b 51 bd ba 54 5c 3d
       -0.018336076 -0.050085332 -0.05112773 0.05379174
000310 6d 45 04 bd 1e bf 83 bd b2 3d 80 3c b0 be 0d bd
       -0.032292772 -0.06432937 0.015654419 -0.034605682
000320 04 af 06 bd cc 03 da bc 22 2f ad bc ea fe fb ba
       -0.03288175 -0.026613139 -0.021140639 -0.0019225751
000330 6f f7 7e 3d 5d 11 01 bd 0f ce 73 3d f1 db 64 3d
       0.06224769 -0.0315107 0.059522685 0.055873815
000340 12 7d 3c 3d ee b2 30 bd df 8e c3 bb 69 31 d3 bb
       0.046017714 -0.04313939 -0.0059679593 -0.006445099
000350 b6 30 a1 3c d5 e1 0a 3d d5 1e 2c 3d 6d b6 74 3d
       0.019676547 0.033906776 0.04202159 0.059744287
000360 32 59 e9 3b dc 70 37 3d 85 80 a1 3b 43 17 19 bd
       0.0071212286 0.044785365 0.004928651 -0.0373757
000370 90 50 7b bd 38 85 87 3c 03 f1 ca 3c cd 93 70 3d
       -0.061356127 0.016543016 0.024773126 0.058734704
000380 18 8f 8b bd 21 69 29 bd a2 67 ec 38 53 46 12 bd
       -0.06814402 -0.041360024 0.0001127266 -0.035711598
000390 a4 14 db bb e7 dc 52 bd 98 d8 41 3c c8 b0 0a bd
       -0.00668581 -0.0514802 0.011831425 -0.033859998
0003a0 55 c5 08 bc 47 e8 a2 bc ca 58 0a ba 48 b3 65 3c
       -0.008347829 -0.01988615 -0.0005277513 0.014019795
0003b0 a0 26 86 bc 05 e0 fc bc 62 cc 71 3c 97 13 1c bd
       -0.01637584 -0.03086854 0.014758201 -0.03810462
0003c0 aa f8 21 bc ef 0d 3c bd 7f 60 08 3c 92 41 46 bd
       -0.009885946 -0.045911726 0.008323788 -0.048402376
0003d0 2c 7b 2e 3d 84 53 08 3d 7d 44 3e 3d 4f e0 89 3d
       0.042597935 0.03328277 0.046452034 0.067322366
0003e0 b8 83 14 bc 2b de d4 3c 94 7f 19 3d 79 e4 1f bc
       -0.009064607 0.025984844 0.037475184 -0.009759062
0003f0 b3 95 4d bb 6e 4e 3a bc 52 5e 9d 3d 56 8b fe bb
       -0.0031369745 -0.011371238 0.07684006 -0.007768075

encoder.4.bias f4 [64]
000000 3b 09 3c 3c 6b 2e 6b 3d 37 92 42 3d f6 8d c8 3c
       0.01147681 0.057417314 0.047502723 0.024481755
000010 2a 54 a0 3c 05 bc 9b 3d c3 5d 4f bd dc c8 6f 3c
       0.019571383 0.07604221 -0.050626528 0.014635291
000020 20 20 56 3d 54 09 29 bd b6 3b 97 3d 2d 9f 1f 3d
       0.05227673 -0.04126866 0.07384436 0.03897016
000030 12 8c 1c bd e6 1d d7 bd d0 f3 ca 3d b6 0d 64 bd
       -0.03821952 -0.105037495 0.09909785 -0.05567714
000040 1b b9 9f 3d 44 f5 80 3c 75 50 7c 3c 6e 2a 4e 3c
       0.07798978 0.015741952 0.015400042 0.012583358
000050 b9 48 ac bc dd 15 d6 3d f7 63 cc bd d6 7b 3a 3d
       -0.02103077 0.10453389 -0.09980004 0.045528255
000060 f0 5c 78 bd 2e 1f a3 bc 8e 96 03 bd 55 90 e9 3c
       -0.060635507 -0.019912329 -0.032126002 0.028511206
000070 18 09 6c 3d 41 24 0f 3d 9d 9d 0b 3b df cc 61 3d
       0.05762586 0.034946684 0.0021303662 0.05512702
000080 ba 77 89 3d 83 a3 85 bd 25 81 b0 bd 3b 20 1f 3d
       0.06712289 -0.06525328 -0.08618382 0.038849097
000090 fb 35 d2 bc 72 1c 20 3c 37 45 e3 bc e6 8b 15 3c
       -0.025660506 0.009772407 -0.027742965 0.009127593
0000a0 d9 0b 53 bc dd ae 0e 3c 21 87 52 3d 29 9b 00 bd
       -0.012881243 0.008708683 0.0513984 -0.031397972
0000b0 1b f9 aa bd b4 50 e2 3b 53 62 d7 3b 80 84 25 bd
       -0.08348294 0.006906593 0.0065730005 -0.040409565
0000c0 d1 bd 8a 3d a5 f4 99 3d e8 6e 21 3d fd 61 30 3c
       0.06774486 0.07517365 0.03941241 0.01076555
0000d0 02 a2 e8 3c c5 2a c7 bc 25 6c 5a 3d 68 dd 7c 3c
       0.028397564 -0.024312386 0.05332579 0.015433647
0000e0 95 b7 ff bd f2 38 e2 3d 5a cb c0 3c f6 dd 5c bd
       -0.12486187 0.11046018 0.023534466 -0.053922616
0000f0 99 dd 17 3c 95 e5 90 bd f7 ff 62 bd f5 f1 76 3d
       0.009269142 -0.07075039 -0.05541989 0.060289342

encoder.6.weight f4 [48, 64]
000000 0b 7d 58 bc 5a 28 a9 3d 96 6a cb bd 0b ff 92 ba
       -0.013213406 0.082596496 -0.09932439 -0.0011214925
000010 88 db 54 3d 5a e3 0c bd 14 8b e7 bb 18 d3 90 bc
       0.051967174 -0.034396507 -0.00706614 -0.017678782
000020 50 1d 51 bd 85 d4 19 3d 14 4c 24 3d 27 b3 bd bd
       -0.051053345 0.03755619 0.040111616 -0.09262686
000030 d1 72 54 bc 06 6f 11 3d cc 5e 17 3d 26 5c 93 bd
       -0.0129668275 0.03550627 0.03695564 -0.0719531
000040 c3 41 d8 3d 0f 98 6a 3d f1 7c ba 3b b3 67 63 bd
       0.10559418 0.05727392 0.0056911637 -0.055518817
000050 93 05 32 bd 7d 38 b4 3d 43 a2 8b bc 7c 24 d3 bd
       -0.043462347 0.08799837 -0.017045146 -0.10309693
000060 c0 3d c7 bd 89 8f 65 3d 90 92 f4 3d 21 6c f4 bc
       -0.09728575 0.05604509 0.11942017 -0.029836716
000070 38 a5 3f 3d 62 f8 8b bd 0e 26 37 bd 3c 34 9d 3d
       0.046788424 -0.06834485 -0.044714026 0.076759785
000080 f0 1a 7e 3d 47 e6 98 bb 64 26 a2 3d 2e b5 6d 3d
       0.06203741 -0.004666123 0.07917479 0.058034115
000090 9c 83 d3 bb 93 13 18 3d 0f a1 34 bd 51 61 05 3c
       -0.006454898 0.037128042 -0.04409891 0.008140878
0000a0 91 cf 70 bd 81 00 0d bd d4 63 0e 3d 31 b3 7f bc
       -0.0587917 -0.03442431 0.034763172 -0.015606687
0000b0 dc 7d 9f 3d 83 74 b2 3d e1 b3 88 3d 5d 7b 84 bd
       0.07787678 0.08713629 0.06674934 -0.06468842
0000c0 24 73 ea 3d 66 0d 5a bc db e6 ef bd db ea c0 bd
       0.114477426 -0.0133088585 -0.11713954 -0.09419795
0000d0 b5 c3 83 3d b8 e2 95 bd 4e cd 9a bd f6 10 85 bd
       0.064338125 -0.07318634 -0.0755869 -0.06497376
0000e0 22 92 dc bd ea d9 25 bd d6 61 b0 bd 83 05 95 3d
       -0.1077006 -0.040491022 -0.08612411 0.07276442
0000f0 87 ed 50 bb 21 8c 69 bd 8b d7 ac 3b 11 39 2e bd
       -0.0031879859 -0.057018403 0.005274718 -0.04253489
000100 55 2b ba 3d f2 70 82 3d 89 ef 6e 3d a8 8e b8 bd
       0.09090296 0.06369199 0.058333907 -0.090115845
000110 1e c2 a0 bd 7f 9c d8 bc 9c 55 a8 bc e6 45 b9 3d
       -0.07849525 -0.02644181 -0.020548634 0.09046535
000120 c7 a4 0a bd 19 e8 ac bd 21 ff 2e bd c0 ea 91 bd
       -0.03384855 -0.084427066 -0.04272378 -0.07124853
000130 29 03 a3 3d 5a 91 ca 3d ed 33 3a 3d 7d a2 70 bd
       0.07959587 0.09891005 0.045459677 -0.05874871
000140 19 05 24 bc 37 16 0b bd 64 73 8a 3d 7e 0f df 3c
       -0.010010981 -0.033956733 0.0676029 0.027229067
000150 c0 e3 e6 3c 95 1d 74 bd d1 2a da bd 06 40 9e bd
       0.028184772 -0.059598524 -0.10652698 -0.07727055
000160 85 11 c5 bd 41 b3 b9 3d b5 2e c2 3d 15 0a fc 3d
       -0.09622482 0.09067393 0.09481565 0.123066105
000170 1b cd 0d bc 76 b6 a7 3b 61 de fd bd 34 7b d9 3d
       -0.008654858 0.0051181866 -0.12395931 0.10619202
000180 34 25 9f 3d 0a 18 80 bd d7 ed c5 3d 0b ac f3 3d
       0.07770768 -0.06254585 0.09664505 0.11898049
000190 db bb 9e 3d 8c 8f 09 3c ac c2 9d bd a4 14 19 3c
       0.07750674 0.008396041 -0.07703146 0.0093433
0001a0 8f 80 5f bc f4 cb 69 bd 35 08 33 3d c3 ab 4a 3d
       -0.013641491 -0.05707927 0.043709 0.04948021
0001b0 4c 31 d9 bd db a0 c6 3c 11 68 b0 38 88 be 0c bd
       -0.10605106 0.024246624 8.411718e-05 -0.034361392
0001c0 ec da bb bd 90 30 cf 3d c3 8f 92 3d c7 1e 1c bb
       -0.091726154 0.101166844 0.071563266 -0.0023822056
0001d0 cd 0d aa 3d fd 3a 0e bd aa d7 99 bd 50 52 64 bd
       0.083034135 -0.034724224 -0.07511838 -0.05574256
0001e0 fc e4 45 3d e5 53 ca bd bb ab bb 3d 13 c5 9c 3d
       0.04831408 -0.09879283 0.09163614 0.076547764
0001f0 93 23 62 bd 94 67 c0 bd 88 98 45 bd c5 86 98 3d
       -0.055209707 -0.09394756 -0.04824117 0.0744758
000200 cd 93 b0 3d b9 83 d2 3c b5 7e 99 3d 16 37 e3 bd
       0.08621941 0.025697576 0.074948706 -0.11094491
000210 16 a9 87 bd 39 52 4e bd 8c e8 12 3d d3 44 ae 3d
       -0.066240475 -0.050371382 0.035866305 0.08509221
000220 e5 c4 ff 3c e5 62 4e 3d 85 e9 af bd 63 17 5b bd
       0.031221816 0.050387282 -0.08589462 -0.0534891
000230 ba 8e 8d bd 5f e5 b2 bc b0 4e 71 3d 09 4b 57 bd
       -0.069119886 -0.021837888 0.058912933 -0.052561793
000240 5c da 5c bd 29 06 4f 3c d6 20 70 3d ef 5e 25 bd
       -0.05391918 0.012635746 0.058625065 -0.04037374
000250 da ec 73 bd 49 d9 eb 3d c8 57 e3 bb 48 59 6a 3d
       -0.05955205 0.11516053 -0.0069379546 0.05721405
000260 c0 21 23 bd 43 9f 0d 3d 88 c2 83 bc 4e c4 6e 3d
       -0.03982711 0.034575712 -0.01608397 0.05829268
000270 d6 b0 44 3d f2 ad a5 bd 9f fc 39 3a 63 91 56 bd
       0.048020206 -0.08089818 0.00070948334 -0.052384745
000280 78 0b 99 bd 44 65 80 3d 3b 98 1e bc 07 d0 ec bc
       -0.074728906 0.06269315 -0.009679849 -0.028907789
000290 3d 70 9f bd 65 f4 da bd 9c 68 3f 3d 98 36 35 bd
       -0.0778508 -0.10691146 0.046730623 -0.044241518
0002a0 5d 59 27 bc 2d b3 ae 3c 14 73 ae bd 6f b2 7a 3d
       -0.010214177 0.021325672 -0.08518043 0.061205324
0002b0 84 fc 84 bd 45 0c 4b 3d 5c 79 7f bd 1d a3 af 3d
       -0.06493476 0.049572248 -0.062371597 0.08576033
0002c0 c4 06 f4 bd 6e b5 8b 3d f0 7c c5 3d 99 43 8a 3a
       -0.11915353 0.06821714 0.096429706 0.001054871
0002d0 2a 39 ce bd 64 2a 82 bc 19 f7 af 3c bc 72 b6 bd
       -0.10069497 -0.015889354 0.02148013 -0.089086026
0002e0 4f 3c 2f 3a 21 ba 26 bd 51 4c 2f 3d 1d 8e 1f bd
       0.0006684707 -0.04070485 0.04279739 -0.03895389
0002f0 10 db f8 bd e4 00 98 3c 0c e1 26 bd b3 96 ca 3d
       -0.12151158 0.018555112 -0.040741965 0.09892025
000300 35 57 02 bd 14 b4 de 3b ac 30 b3 bd 94 47 30 bd
       -0.03182145 0.0067963693 -0.08749518 -0.043037012
000310 a8 3a 42 3d d6 4d 7e bd c0 fb 12 bd b4 be de bd
       0.04741922 -0.06208595 -0.03588462 -0.108762175
000320 ea 90 56 3d 98 6b 4a bb 4d f8 9c bd 9d ba 9a bc
       0.052384295 -0.0030886885 -0.07664547 -0.018887812
000330 89 f6 4f 3c 92 f0 16 bd 2b e6 02 be fb 99 6f 3c
       0.012693056 -0.03685052 -0.12783115 0.014624114
000340 0d 01 c8 bd 6c b3 16 bd 49 32 33 3d 87 c3 51 bc
       -0.097658254 -0.036792204 0.043749128 -0.012802965
000350 2f 20 37 3c 7b 21 a5 bd 38 12 aa 3d 88 ce 89 3d
       0.011177107 -0.080630265 0.08304256 0.06728846
000360 b8 6e fb 3c 4d 26 0b 3d 23 bc 00 bd 74 0c a1 3d
       0.030692443 0.033972073 -0.03142942 0.07863703
000370 70 2c fa 3b c1 94 51 bc 44 4a 3a bd f4 59 37 bb
       0.007634692 -0.012791813 -0.04548098 -0.00279772
000380 c8 b5 98 bd 3b 17 d2 3d 8d f3 0e 3e e1 d6 4c 3d
       -0.07456547 0.10258337 0.13960095 0.050009612
000390 4f 8c 0a bd 11 15 bb 3d f0 d3 9f 3c 3e ae 08 3d
       -0.033825215 0.091348775 0.01951024 0.033369295
0003a0 f6 ec 2f bc 41 6b 35 bb 5f 28 d6 bd 9b 29 27 bc
       -0.010737648 -0.0027682337 -0.10456919 -0.010202791
0003b0 c7 ef ac 3d 72 2c bd 3c 79 57 fc 3c 95 df 63 3b
       0.084441714 0.023092482 0.030803429 0.0034770716
0003c0 48 4f ac 3c 3a a7 11 bb 48 39 0b be ef b4 16 3d
       0.021033898 -0.002222492 -0.1359607 0.036793645
0003d0 fc 22 07 3d 30 51 a6 bb 95 12 44 3c 4b b0 6a 3d
       0.032992348 -0.0050755963 0.011967321 0.057297032
0003e0 29 ff 23 3d cd c4 82 3c 66 16 bd 3d d4 8d bc 3d
       0.04003826 0.015962983 0.09232788 0.09206739
0003f0 84 d9 9e bd 79 f0 7d 3d 11 9a b9 3d 5d 87 ab bd
       -0.077563316 0.06199691 0.09062589 -0.08375428

encoder.6.bias f4 [48]
000000 4c f5 9e bc 51 a8 78 bc 95 f9 92 3b b1 7f 9c 3c
       -0.019404076 -0.0151768485 0.004485319 0.019103857
000010 87 b0 b5 b9 1f 7d f4 bb 85 70 a3 bd 9f 27 2e bc
       -0.00034654533 -0.0074612047 -0.07980446 -0.010629564
000020 c9 4f 4b 3c d7 69 aa 3d a5 6b a8 bd 63 9b da 3d
       0.012409159 0.083209686 -0.082236566 0.10674169
000030 b3 c7 c4 bc 57 e7 a8 3c f5 ed c9 3c 99 a8 4c bd
       -0.024021005 0.020618124 0.0246496 -0.049965475
000040 57 f6 9e bd 89 8f 5b 3c 71 02 1d 3d e2 fa 9d bd
       -0.07761829 0.013400921 0.038332406 -0.07713868
000050 1c f7 17 3d ca a5 e4 bd 7f aa 67 3d 7d da ad 3d
       0.037100896 -0.11164434 0.056559082 0.08488939
000060 d3 e2 98 3d 38 04 00 3c a2 dc 85 bd 85 06 0d bd
       0.07465138 0.007813506 -0.06536223 -0.034430046
000070 68 af 8a bd be a6 e0 3d 92 f7 a1 3d 14 d6 76 3d
       -0.06771737 0.109693035 0.079085484 0.060262755
000080 ee 56 d3 3c 9f 69 65 3d 01 30 2a bd 22 73 c1 3d
       0.025798287 0.05600893 -0.041549686 0.09445788
000090 f1 be 0f 3d 59 43 08 be 06 e7 c3 bd fd 38 f0 3b
       0.035094205 -0.13306941 -0.095655486 0.0073310123
0000a0 c1 d5 f2 3d 14 a6 7d 3c 2a 83 ed 3b 1f 0e 37 bd
       0.118571766 0.015481491 0.007248302 -0.0446912
0000b0 0a ed 6b 3c 56 6c f8 bd 1f f4 d4 3c 6c 69 28 bd
       0.014399776 -0.121300384 0.025995312 -0.041116163

latent_space_mu.weight f4 [48, 48]
000000 72 6e 82 3d bf d4 05 3c f0 d7 e9 3d 14 fe a4 3d
       0.06368722 0.008168398 0.1141814 0.08056274
000010 19 b6 85 bc 47 ac 18 3e c9 51 99 3d 50 53 b2 3d
       -0.016322182 0.14909469 0.074863024 0.08707297
000020 65 c2 bd bc 64 11 d3 bc cd fc 27 3d ed 28 d3 3d
       -0.023163984 -0.025765128 0.041012574 0.1031054
000030 1e bb c8 bd 6f 30 63 3d c5 eb fc 3d d0 f4 a0 bd
       -0.09801315 0.05546611 0.12349657 -0.07859194
000040 af a6 25 bd 71 62 01 3d cf 4b 5b bc ce 2c 6c bd
       -0.040442165 0.03158802 -0.013384773 -0.057659917
000050 a7 eb 97 3d b8 51 bc bd 70 31 70 3d b4 d7 09 bd
       0.07417994 -0.09195274 0.058640897 -0.033652976
000060 06 c5 3d bd b9 99 80 bd 6f 7e 82 3d 67 b5 92 bc
       -0.046330474 -0.0627932 0.063717715 -0.017908765
000070 51 84 35 3c c3 0f 89 3c f3 aa f0 3d 86 f6 cc 3d
       0.01107891 0.016731149 0.11751356 0.10007958
000080 9e cb f9 bc ec 4c 3f 3c 90 6f 99 bd 1d b3 cb 3d
       -0.0304926 0.011676054 -0.07491982 0.099462725
000090 9b 41 fb 3c 2f 90 f5 bd 35 7e 88 3c 55 74 88 bd
       0.030670932 -0.119903915 0.016661743 -0.066628136
0000a0 a2 e2 93 3d 21 f5 f9 3d a3 8d c1 bc 9d 4a 99 3b
       0.07220961 0.12204958 -0.023627108 0.004678084
0000b0 22 10 a1 3c 69 f1 8e 3c 1e d8 a3 3c 8e 26 f1 3b
       0.019661013 0.017449098 0.020000514 0.0073593324
0000c0 0d bc 48 3d a6 2c 3b 3d 81 ed f5 3c bf 69 a2 bd
       0.049007464 0.045696877 0.030020477 -0.07930326
0000d0 ab 1d d4 bd db 33 bc bd e2 82 ac 3d 8e 89 91 ba
       -0.10357221 -0.09189578 0.084234014 -0.0011103617
0000e0 e2 46 30 bd 6b 7f fa bc 7f 8c 70 bd 9f 8c b2 3d
       -0.04303635 -0.030578336 -0.058727738 0.087182276
0000f0 a6 56 00 bb c8 b3 c0 3d 8a 0a 2e 3d a9 b8 43 bd
       -0.0019582896 0.094092906 0.04249052 -0.047783528
000100 9a 06 52 bd 3a 81 3c 3d 62 31 03 be e9 5f 5c bd
       -0.051275827 0.046021678 -0.12811807 -0.053802405
000110 2f 63 2b 3c ed ae 41 bd 73 08 a5 3c 32 46 ec 3d
       0.010460659 -0.047285963 0.02014563 0.11536826
000120 55 39 40 3d f7 8c a8 bb 7b 20 38 3d 7e 7c 20 3c
       0.046929676 -0.0051437574 0.04495285 0.009795306
000130 a7 94 d0 3d 7c d7 75 bd dd 93 98 3d 5b fb 26 bd
       0.10184603 -0.060019955 0.07450078 -0.040767055
000140 5d 45 a5 3d 78 87 f7 3c 7a b3 81 3d 6d 6b ad bd
       0.080698706 0.030215964 0.063330606 -0.084677555
000150 fa d5 92 bc 4a d0 f4 bd e8 a9 84 bd f2 c0 c4 3d
       -0.017924298 -0.119537905 -0.064777195 0.09607114
000160 7e 22 61 3d 0b cb 0a 3d 3b 44 08 bc 6f d5 1b bd
       0.054964535 0.033885043 -0.008317049 -0.038045343
000170 92 9d f4 3b 88 e6 0d 3d 95 a7 6c bd 2f 5b c5 bd
       0.007465073 0.03464368 -0.057777006 -0.096365325
000180 b0 2f fc 3d 94 2b 0b be 39 48 bd 3d e1 39 39 bd
       0.12313783 -0.13590842 0.09242291 -0.045221213
000190 75 7b d8 bc aa 3d 44 bd 0d e4 d5 3d 60 5c d6 3c
       -0.026426056 -0.04791037 0.10443888 0.026167095
0001a0 fc d5 78 bd 29 1a e5 3c ae ae 15 bd 37 5f a5 3d
       -0.060750946 0.027966576 -0.03654354 0.080748014
0001b0 7a cd a2 3d d6 1e b7 bd 72 90 4c bc 10 4d 3f 3d
       0.07949348 -0.08941428 -0.01248561 0.046704352
0001c0 fd 80 ba 3c d9 c4 3e 3c 8e 87 07 be 2f da ba bd
       0.022766585 0.011643612 -0.13235304 -0.091236465
0001d0 f2 af f3 bd 38 72 c6 3d 88 e2 54 bd da 16 b3 3c
       -0.11898793 0.09689754 -0.05197385 0.021861482
0001e0 e1 1f 58 bd c5 cf 3b 3d 1a 69 d8 bc e6 68 da bd
       -0.052764777 0.04585244 -0.026417304 -0.10664539
0001f0 e5 70 3d 3d df 62 fd 3d 18 48 b5 bb 90 bd 8d 3c
       0.046250243 0.12372374 -0.005532276 0.017302305
000200 ed bf 39 bd 55 33 80 3d 23 6b cb 3d b8 6b d1 3d
       -0.04534905 0.06259791 0.09932544 0.10225624
000210 ad 35 c2 bd c2 d3 23 3e 21 9c b5 bd 00 69 e8 bd
       -0.09482894 0.15998748 -0.0886767 -0.11348152
000220 cf 32 85 3c fe b9 d7 bd ad ed b2 bd d6 b5 a8 bd
       0.016259579 -0.10533522 -0.08736739 -0.082378075
000230 de ad 1b 3e ee b6 1e 3e 09 a2 d6 3d d4 8e 82 bc
       0.15203044 0.1549947 0.104801245 -0.015937246
000240 82 03 24 bd 68 ed 0e bd d8 e5 70 3d fb 93 a6 bd
       -0.040042408 -0.034894377 0.058812946 -0.08133694
000250 fe 8d 05 3e 3f fe 35 bb ee f4 74 bd 99 a4 af bd
       0.13042447 -0.002776995 -0.059803896 -0.085763164
000260 c9 89 78 bd 53 e3 0b 3d f7 1d 4d bd 1f ca 5c 3d
       -0.060678277 0.03415234 -0.050077405 0.053903695
000270 64 4d 39 3c a5 7a e7 bd bc be ad 3c ea b4 a4 bb
       0.011309955 -0.113026895 0.021209113 -0.0050264494
000280 c9 dd 96 bd 1f 37 6e 3d 3c 60 b6 3c ab a8 48 bc
       -0.07366521 0.058158036 0.022262685 -0.012247245
000290 d4 97 0c 3c c0 cc 2f 3d e9 8f 2f 3d 72 c9 36 bd
       0.0085811205 0.042919874 0.042861853 -0.044625707
0002a0 e1 fd 46 3d 45 9e 2a bc 94 4e fd bd 0b 17 86 bd
       0.04858196 -0.010413711 -0.12368503 -0.06547364
0002b0 58 45 53 3d 59 6b fd bd 3b 8f 91 3d 6a e9 dd 3d
       0.051579803 -0.123739906 0.07107397 0.10835536
0002c0 a5 13 e7 3d 05 d0 63 bc 93 8e 9f bd ac e2 04 3e
       0.11283044 -0.013904576 -0.07790866 0.12977093
0002d0 54 84 9f bd 85 40 f6 3c 52 5d b7 bd ea 10 a2 3d
       -0.077889115 0.030060062 -0.08953346 0.07913382
0002e0 8e a8 c3 3d 20 8b c6 bd 39 52 3e 3d 3b 16 85 3d
       0.09553634 -0.09694505 0.046465132 0.06498381
0002f0 19 6e d8 3c 83 0c ab bd 53 d3 c9 ba f0 d6 fe 3d
       0.026419686 -0.08351996 -0.0015398063 0.1244334
000300 cd 67 b4 bd c2 96 94 bd 36 63 d7 3d 8c ba 4b bd
       -0.08808861 -0.07255317 0.1051697 -0.04973845
000310 31 7e 87 3d b0 72 a3 bd b5 82 8d 3d 70 b1 4c 3d
       0.06615866 -0.07980859 0.06909696 0.049973905
000320 f7 ee c0 3d a5 3c d9 3d 4d 8f 67 bd 45 85 cd bd
       0.09420579 0.1060727 -0.056533147 -0.10035185
000330 f6 b9 c5 bb a9 6f b4 3d 11 ae 03 3e cd 89 64 3d
       -0.006034131 0.0881036 0.1285937 0.05579548
000340 c6 90 c3 bc 8d 46 b1 bd de 6c 1c 3e 4f 4d 9e 3d
       -0.023872744 -0.086560346 0.15275905 0.07729589
000350 07 31 9e 3d 79 db 8d 3d b5 7d ad 3c 26 25 83 bd
       0.07724195 0.06926627 0.021178106 -0.0640357
000360 c4 e3 17 3e e1 06 01 3e 2a 67 ee bd 2c 2a b1 bc
       0.1483298 0.1260028 -0.11640771 -0.021626554
000370 9e bf d2 bd ca 91 1f 3d d5 da 74 bd 42 3e a0 3d
       -0.10290454 0.038957395 -0.059779007 0.07824375
000380 c8 7e 53 bd 33 12 40 bd 01 00 e3 bc fd 7e c3 bc
       -0.05163458 -0.046892356 -0.027709963 -0.023864264
000390 59 c8 80 bd 9c ff 5d 3d 4d 15 cb bd ee 5a 4a 3d
       -0.06288213 0.054198846 -0.09916172 0.049403124
0003a0 8d eb 78 bd c9 a6 9f 3d bf 01 dd 3d fc f2 f8 3d
       -0.060771514 0.077954836 0.10791349 0.121557206
0003b0 69 d4 f0 bc 26 25 17 be 18 a6 10 3e cc 22 ae bd
       -0.02939816 -0.14760265 0.1412586 -0.08502731
0003c0 37 53 d0 3d a0 0d 68 bd 7b ef c9 bd 87 3b 28 3e
       0.10172122 -0.05665362 -0.098601304 0.16428958
0003d0 4d ca 10 bc e2 35 8a bd 8b 33 43 3c cc 04 82 3c
       -0.008837295 -0.067485586 0.011914144 0.015871428
0003e0 08 98 9a bd a8 4c ab 3d 5a 2c b5 3d ff 2a 10 be
       -0.07548529 0.083642304 0.0884635 -0.14078902
0003f0 26 aa 8b 3d b8 af d0 3d 55 f0 f8 3c 52 1b 33 3d
       0.068195626 0.10189766 0.030388037 0.043727227
